============================= test session starts ==============================
platform linux -- Python 3.10.12, pytest-8.4.2, pluggy-1.6.0 -- /home/ilyas/transformers/.docker/bin/python3
cachedir: .pytest_cache
hypothesis profile 'default'
rootdir: /home/ilyas/transformers
configfile: pyproject.toml
plugins: anyio-4.11.0, xdist-3.8.0, asyncio-1.3.0, timeout-2.4.0, rich-0.2.0, rerunfailures-15.1, hypothesis-6.148.2, order-1.3.0
asyncio: mode=strict, debug=False, asyncio_default_fixture_loop_scope=function, asyncio_default_test_loop_scope=function
created: 64/64 workers
64 workers [477 items]

scheduling tests via LoadScheduling

tests/models/align/test_modeling_align.py::AlignVisionModelTest::test_torch_export <- tests/test_modeling_common.py 
tests/models/aimv2/test_modeling_aimv2.py::Aimv2VisionModelTest::test_torch_export <- tests/test_modeling_common.py 
tests/models/align/test_modeling_align.py::AlignModelTest::test_torch_export <- tests/test_modeling_common.py 
tests/models/aimv2/test_modeling_aimv2.py::Aimv2ModelTest::test_torch_export <- tests/test_modeling_common.py 
tests/models/bart/test_modeling_bart.py::BartStandaloneDecoderModelTest::test_torch_export <- tests/test_modeling_common.py 
tests/models/aria/test_modeling_aria.py::AriaForConditionalGenerationModelTest::test_torch_export <- tests/test_modeling_common.py 
tests/models/altclip/test_modeling_altclip.py::AltCLIPTextModelTest::test_torch_export <- tests/test_modeling_common.py 
tests/models/bark/test_modeling_bark.py::BarkSemanticModelTest::test_torch_export <- tests/test_modeling_common.py 
tests/models/aya_vision/test_modeling_aya_vision.py::AyaVisionModelTest::test_torch_export <- tests/test_modeling_common.py 
tests/models/apertus/test_modeling_apertus.py::ApertusModelTest::test_torch_export <- tests/test_modeling_common.py 
tests/models/audioflamingo3/test_modeling_audioflamingo3.py::AudioFlamingo3ForConditionalGenerationModelTest::test_torch_export <- tests/test_modeling_common.py 
tests/models/big_bird/test_modeling_big_bird.py::BigBirdModelTest::test_torch_export <- tests/test_modeling_common.py 
tests/models/bit/test_modeling_bit.py::BitModelTest::test_torch_export <- tests/test_modeling_common.py 
tests/models/bert/test_modeling_bert.py::BertModelTest::test_torch_export <- tests/test_modeling_common.py 
tests/models/blip/test_modeling_blip.py::BlipVisionModelTest::test_torch_export <- tests/test_modeling_common.py 
tests/models/blip/test_modeling_blip.py::BlipTextRetrievalModelTest::test_torch_export <- tests/test_modeling_common.py 
tests/models/blip_2/test_modeling_blip_2.py::Blip2TextModelWithProjectionTest::test_torch_export <- tests/test_modeling_common.py 
tests/models/bark/test_modeling_bark.py::BarkFineModelTest::test_torch_export <- tests/test_modeling_common.py 
tests/models/blip_2/test_modeling_blip_2.py::Blip2TextRetrievalModelTest::test_torch_export <- tests/test_modeling_common.py 
tests/models/blenderbot_small/test_modeling_blenderbot_small.py::BlenderbotSmallModelTest::test_torch_export <- tests/test_modeling_common.py 
tests/models/blt/test_modeling_blt.py::BltModelTest::test_torch_export <- tests/test_modeling_common.py 
tests/models/blenderbot/test_modeling_blenderbot.py::BlenderbotModelTest::test_torch_export <- tests/test_modeling_common.py 
tests/models/bigbird_pegasus/test_modeling_bigbird_pegasus.py::BigBirdPegasusStandaloneDecoderModelTest::test_torch_export <- tests/test_modeling_common.py 
tests/models/blip/test_modeling_blip_text.py::BlipTextModelTest::test_torch_export <- tests/test_modeling_common.py 
tests/models/blip_2/test_modeling_blip_2.py::Blip2ForConditionalGenerationDecoderOnlyTest::test_torch_export <- tests/test_modeling_common.py 
tests/models/blip/test_modeling_blip.py::BlipModelTest::test_torch_export <- tests/test_modeling_common.py 
tests/models/bros/test_modeling_bros.py::BrosModelTest::test_torch_export <- tests/test_modeling_common.py 
tests/models/chameleon/test_modeling_chameleon.py::ChameleonModelTest::test_torch_export <- tests/test_modeling_common.py 
tests/models/clipseg/test_modeling_clipseg.py::CLIPSegVisionModelTest::test_torch_export <- tests/test_modeling_common.py 
tests/models/clap/test_modeling_clap.py::ClapTextModelTest::test_torch_export <- tests/test_modeling_common.py 
tests/models/clip/test_modeling_clip.py::CLIPVisionModelTest::test_torch_export <- tests/test_modeling_common.py 
tests/models/chinese_clip/test_modeling_chinese_clip.py::ChineseCLIPModelTest::test_torch_export <- tests/test_modeling_common.py 
tests/models/codegen/test_modeling_codegen.py::CodeGenModelTest::test_torch_export <- tests/test_modeling_common.py 
tests/models/convnextv2/test_modeling_convnextv2.py::ConvNextV2ModelTest::test_torch_export <- tests/test_modeling_common.py 
tests/models/clipseg/test_modeling_clipseg.py::CLIPSegModelTest::test_torch_export <- tests/test_modeling_common.py 
tests/models/cohere2/test_modeling_cohere2.py::CohereModelTest::test_torch_export <- tests/test_modeling_common.py 
tests/models/chinese_clip/test_modeling_chinese_clip.py::ChineseCLIPTextModelTest::test_torch_export <- tests/test_modeling_common.py 
tests/models/clip/test_modeling_clip.py::CLIPModelTest::test_torch_export <- tests/test_modeling_common.py 
tests/models/convbert/test_modeling_convbert.py::ConvBertModelTest::test_torch_export <- tests/test_modeling_common.py 
tests/models/csm/test_modeling_csm.py::CsmForConditionalGenerationTest::test_torch_export <- tests/test_modeling_common.py 
tests/models/clvp/test_modeling_clvp.py::ClvpDecoderTest::test_torch_export <- tests/test_modeling_common.py 
tests/models/cohere2_vision/test_modeling_cohere2_vision.py::Cohere2ModelTest::test_torch_export <- tests/test_modeling_common.py 
tests/models/cvt/test_modeling_cvt.py::CvtModelTest::test_torch_export <- tests/test_modeling_common.py 
tests/models/colqwen2/test_modeling_colqwen2.py::ColQwen2ForRetrievalModelTest::test_torch_export <- tests/test_modeling_common.py 
tests/models/d_fine/test_modeling_d_fine.py::DFineModelTest::test_torch_export <- tests/test_modeling_common.py 
tests/models/dac/test_modeling_dac.py::DacModelTest::test_torch_export <- tests/test_modeling_common.py 
tests/models/data2vec/test_modeling_data2vec_text.py::Data2VecTextModelTest::test_torch_export <- tests/test_modeling_common.py 
tests/models/deepseek_v2/test_modeling_deepseek_v2.py::DeepseekV2ModelTest::test_torch_export <- tests/test_modeling_common.py 
tests/models/deberta_v2/test_modeling_deberta_v2.py::DebertaV2ModelTest::test_torch_export <- tests/test_modeling_common.py 
tests/models/dbrx/test_modeling_dbrx.py::DbrxModelTest::test_torch_export <- tests/test_modeling_common.py 
tests/models/deepseek_vl/test_modeling_deepseek_vl.py::DeepseekVLModelTest::test_torch_export <- tests/test_modeling_common.py 
tests/models/deformable_detr/test_modeling_deformable_detr.py::DeformableDetrModelTest::test_torch_export <- tests/test_modeling_common.py 
tests/models/dinov2/test_modeling_dinov2.py::Dinov2ModelTest::test_torch_export <- tests/test_modeling_common.py 
tests/models/dpr/test_modeling_dpr.py::DPRModelTest::test_torch_export <- tests/test_modeling_common.py 
tests/models/donut/test_modeling_donut_swin.py::DonutSwinModelTest::test_torch_export <- tests/test_modeling_common.py 
tests/models/detr/test_modeling_detr.py::DetrModelTest::test_torch_export <- tests/test_modeling_common.py 
tests/models/edgetam/test_modeling_edgetam.py::EdgeTamModelTest::test_torch_export <- tests/test_modeling_common.py 
tests/models/efficientnet/test_modeling_efficientnet.py::EfficientNetModelTest::test_torch_export <- tests/test_modeling_common.py 
tests/models/dpt/test_modeling_dpt_auto_backbone.py::DPTModelTest::test_torch_export <- tests/test_modeling_common.py 
tests/models/dinov3_convnext/test_modeling_dinov3_convnext.py::DINOv3ConvNextModelTest::test_torch_export <- tests/test_modeling_common.py 
tests/models/depth_anything/test_modeling_depth_anything.py::DepthAnythingModelTest::test_torch_export <- tests/test_modeling_common.py 
tests/models/emu3/test_modeling_emu3.py::Emu3Text2TextModelTest::test_torch_export <- tests/test_modeling_common.py 
tests/models/distilbert/test_modeling_distilbert.py::DistilBertModelTest::test_torch_export <- tests/test_modeling_common.py 
tests/models/diffllama/test_modeling_diffllama.py::DiffLlamaModelTest::test_torch_export <- tests/test_modeling_common.py 
[gw11] [  0%] PASSED tests/models/altclip/test_modeling_altclip.py::AltCLIPTextModelTest::test_torch_export <- tests/test_modeling_common.py 
tests/models/altclip/test_modeling_altclip.py::AltCLIPModelTest::test_torch_export <- tests/test_modeling_common.py 
[gw27] [  0%] PASSED tests/models/chinese_clip/test_modeling_chinese_clip.py::ChineseCLIPTextModelTest::test_torch_export <- tests/test_modeling_common.py 
tests/models/chinese_clip/test_modeling_chinese_clip.py::ChineseCLIPVisionModelTest::test_torch_export <- tests/test_modeling_common.py 
[gw5] [  0%] PASSED tests/models/bark/test_modeling_bark.py::BarkSemanticModelTest::test_torch_export <- tests/test_modeling_common.py 
tests/models/bark/test_modeling_bark.py::BarkCoarseModelTest::test_torch_export <- tests/test_modeling_common.py 
[gw43] [  0%] PASSED tests/models/bark/test_modeling_bark.py::BarkFineModelTest::test_torch_export <- tests/test_modeling_common.py 
tests/models/bart/test_modeling_bart.py::BartModelTest::test_torch_export <- tests/test_modeling_common.py 
[gw57] [  1%] PASSED tests/models/emu3/test_modeling_emu3.py::Emu3Text2TextModelTest::test_torch_export <- tests/test_modeling_common.py 
tests/models/emu3/test_modeling_emu3.py::Emu3Vision2TextModelTest::test_torch_export <- tests/test_modeling_common.py 
[gw6] [  1%] PASSED tests/models/blip_2/test_modeling_blip_2.py::Blip2TextModelWithProjectionTest::test_torch_export <- tests/test_modeling_common.py 
tests/models/blip_2/test_modeling_blip_2.py::Blip2VisionModelWithProjectionTest::test_torch_export <- tests/test_modeling_common.py 
[gw59] [  1%] PASSED tests/models/blip/test_modeling_blip.py::BlipVisionModelTest::test_torch_export <- tests/test_modeling_common.py 
tests/models/blip/test_modeling_blip.py::BlipTextModelTest::test_torch_export <- tests/test_modeling_common.py 
[gw52] [  1%] PASSED tests/models/blip/test_modeling_blip_text.py::BlipTextModelTest::test_torch_export <- tests/test_modeling_common.py 
tests/models/blip_2/test_modeling_blip_2.py::Blip2VisionModelTest::test_torch_export <- tests/test_modeling_common.py 
[gw32] [  1%] PASSED tests/models/clipseg/test_modeling_clipseg.py::CLIPSegVisionModelTest::test_torch_export <- tests/test_modeling_common.py 
tests/models/clipseg/test_modeling_clipseg.py::CLIPSegTextModelTest::test_torch_export <- tests/test_modeling_common.py 
[gw1] [  2%] PASSED tests/models/aimv2/test_modeling_aimv2.py::Aimv2VisionModelTest::test_torch_export <- tests/test_modeling_common.py 
tests/models/aimv2/test_modeling_aimv2.py::Aimv2TextModelTest::test_torch_export <- tests/test_modeling_common.py 
[gw24] [  2%] PASSED tests/models/clap/test_modeling_clap.py::ClapTextModelTest::test_torch_export <- tests/test_modeling_common.py 
[gw5] [  2%] PASSED tests/models/bark/test_modeling_bark.py::BarkCoarseModelTest::test_torch_export <- tests/test_modeling_common.py 
tests/models/ernie/test_modeling_ernie.py::ErnieModelTest::test_torch_export <- tests/test_modeling_common.py 
tests/models/clap/test_modeling_clap.py::ClapModelTest::test_torch_export <- tests/test_modeling_common.py 
[gw61] [  2%] PASSED tests/models/colqwen2/test_modeling_colqwen2.py::ColQwen2ForRetrievalModelTest::test_torch_export <- tests/test_modeling_common.py 
tests/models/conditional_detr/test_modeling_conditional_detr.py::ConditionalDetrModelTest::test_torch_export <- tests/test_modeling_common.py 
[gw26] [  2%] PASSED tests/models/clip/test_modeling_clip.py::CLIPVisionModelTest::test_torch_export <- tests/test_modeling_common.py 
tests/models/clip/test_modeling_clip.py::CLIPTextModelTest::test_torch_export <- tests/test_modeling_common.py 
[gw2] [  3%] PASSED tests/models/bart/test_modeling_bart.py::BartStandaloneDecoderModelTest::test_torch_export <- tests/test_modeling_common.py 
tests/models/beit/test_modeling_beit.py::BeitModelTest::test_torch_export <- tests/test_modeling_common.py 
[gw27] [  3%] PASSED tests/models/chinese_clip/test_modeling_chinese_clip.py::ChineseCLIPVisionModelTest::test_torch_export <- tests/test_modeling_common.py 
tests/models/eomt/test_modeling_eomt.py::EomtForUniversalSegmentationTest::test_torch_export <- tests/test_modeling_common.py 
[gw37] [  3%] PASSED tests/models/codegen/test_modeling_codegen.py::CodeGenModelTest::test_torch_export <- tests/test_modeling_common.py 
tests/models/cohere/test_modeling_cohere.py::CohereModelTest::test_torch_export <- tests/test_modeling_common.py 
[gw18] [  3%] PASSED tests/models/clvp/test_modeling_clvp.py::ClvpDecoderTest::test_torch_export <- tests/test_modeling_common.py 
tests/models/clvp/test_modeling_clvp.py::ClvpModelForConditionalGenerationTest::test_torch_export <- tests/test_modeling_common.py 
[gw59] [  3%] PASSED tests/models/blip/test_modeling_blip.py::BlipTextModelTest::test_torch_export <- tests/test_modeling_common.py 
tests/models/esm/test_modeling_esmfold.py::EsmFoldModelTest::test_torch_export <- tests/test_modeling_common.py 
[gw32] [  4%] PASSED tests/models/clipseg/test_modeling_clipseg.py::CLIPSegTextModelTest::test_torch_export <- tests/test_modeling_common.py 
tests/models/exaone4/test_modeling_exaone4.py::Exaone4ModelTest::test_torch_export <- tests/test_modeling_common.py 
[gw1] [  4%] PASSED tests/models/aimv2/test_modeling_aimv2.py::Aimv2TextModelTest::test_torch_export <- tests/test_modeling_common.py 
tests/models/falcon/test_modeling_falcon.py::FalconModelTest::test_torch_export <- tests/test_modeling_common.py 
[gw52] [  4%] PASSED tests/models/blip_2/test_modeling_blip_2.py::Blip2VisionModelTest::test_torch_export <- tests/test_modeling_common.py 
tests/models/evolla/test_modeling_evolla.py::EvollaModelTest::test_torch_export <- tests/test_modeling_common.py 
[gw20] [  4%] PASSED tests/models/bigbird_pegasus/test_modeling_bigbird_pegasus.py::BigBirdPegasusStandaloneDecoderModelTest::test_torch_export <- tests/test_modeling_common.py 
tests/models/biogpt/test_modeling_biogpt.py::BioGptModelTest::test_torch_export <- tests/test_modeling_common.py 
[gw28] [  5%] PASSED tests/models/depth_anything/test_modeling_depth_anything.py::DepthAnythingModelTest::test_torch_export <- tests/test_modeling_common.py 
tests/models/depth_pro/test_modeling_depth_pro.py::DepthProModelTest::test_torch_export <- tests/test_modeling_common.py 
[gw34] [  5%] PASSED tests/models/dpt/test_modeling_dpt_auto_backbone.py::DPTModelTest::test_torch_export <- tests/test_modeling_common.py 
tests/models/dpt/test_modeling_dpt_hybrid.py::DPTModelTest::test_torch_export <- tests/test_modeling_common.py 
[gw11] [  5%] PASSED tests/models/altclip/test_modeling_altclip.py::AltCLIPModelTest::test_torch_export <- tests/test_modeling_common.py 
tests/models/encodec/test_modeling_encodec.py::EncodecModelTest::test_torch_export <- tests/test_modeling_common.py 
[gw31] [  5%] PASSED tests/models/blip/test_modeling_blip.py::BlipTextRetrievalModelTest::test_torch_export <- tests/test_modeling_common.py 
tests/models/blip/test_modeling_blip.py::BlipTextImageModelTest::test_torch_export <- tests/test_modeling_common.py 
[gw51] [  5%] PASSED tests/models/clip/test_modeling_clip.py::CLIPModelTest::test_torch_export <- tests/test_modeling_common.py 
tests/models/clip/test_modeling_clip.py::CLIPForImageClassificationModelTest::test_torch_export <- tests/test_modeling_common.py 
[gw46] [  6%] PASSED tests/models/dpr/test_modeling_dpr.py::DPRModelTest::test_torch_export <- tests/test_modeling_common.py 
tests/models/dpt/test_modeling_dpt.py::DPTModelTest::test_torch_export <- tests/test_modeling_common.py 
[gw53] [  6%] PASSED tests/models/cohere2/test_modeling_cohere2.py::CohereModelTest::test_torch_export <- tests/test_modeling_common.py 
tests/models/cohere2/test_modeling_cohere2.py::Cohere2ModelTest::test_torch_export <- tests/test_modeling_common.py 
[gw9] [  6%] PASSED tests/models/blip/test_modeling_blip.py::BlipModelTest::test_torch_export <- tests/test_modeling_common.py 
tests/models/blip/test_modeling_blip.py::BlipVQAModelTest::test_torch_export <- tests/test_modeling_common.py 
[gw12] [  6%] PASSED tests/models/chinese_clip/test_modeling_chinese_clip.py::ChineseCLIPModelTest::test_torch_export <- tests/test_modeling_common.py 
tests/models/clap/test_modeling_clap.py::ClapAudioModelTest::test_torch_export <- tests/test_modeling_common.py 
[gw0] [  6%] PASSED tests/models/aimv2/test_modeling_aimv2.py::Aimv2ModelTest::test_torch_export <- tests/test_modeling_common.py 
[gw51] [  7%] PASSED tests/models/clip/test_modeling_clip.py::CLIPForImageClassificationModelTest::test_torch_export <- tests/test_modeling_common.py 
tests/models/albert/test_modeling_albert.py::AlbertModelTest::test_torch_export <- tests/test_modeling_common.py 
tests/models/funnel/test_modeling_funnel.py::FunnelBaseModelTest::test_torch_export <- tests/test_modeling_common.py 
[gw15] [  7%] PASSED tests/models/blip_2/test_modeling_blip_2.py::Blip2ForConditionalGenerationDecoderOnlyTest::test_torch_export <- tests/test_modeling_common.py 
tests/models/blip_2/test_modeling_blip_2.py::Blip2ModelTest::test_torch_export <- tests/test_modeling_common.py 
[gw17] [  7%] PASSED tests/models/audioflamingo3/test_modeling_audioflamingo3.py::AudioFlamingo3ForConditionalGenerationModelTest::test_torch_export <- tests/test_modeling_common.py 
tests/models/autoformer/test_modeling_autoformer.py::AutoformerModelTest::test_torch_export <- tests/test_modeling_common.py 
[gw6] [  7%] PASSED tests/models/blip_2/test_modeling_blip_2.py::Blip2VisionModelWithProjectionTest::test_torch_export <- tests/test_modeling_common.py 
tests/models/esm/test_modeling_esm.py::EsmModelTest::test_torch_export <- tests/test_modeling_common.py 
[gw41] [  7%] PASSED tests/models/chameleon/test_modeling_chameleon.py::ChameleonModelTest::test_torch_export <- tests/test_modeling_common.py 
tests/models/chameleon/test_modeling_chameleon.py::ChameleonVision2SeqModelTest::test_torch_export <- tests/test_modeling_common.py 
[gw26] [  8%] PASSED tests/models/clip/test_modeling_clip.py::CLIPTextModelTest::test_torch_export <- tests/test_modeling_common.py 
tests/models/fastspeech2_conformer/test_modeling_fastspeech2_conformer.py::FastSpeech2ConformerWithHifiGanTest::test_torch_export <- tests/test_modeling_common.py 
[gw49] [  8%] PASSED tests/models/dinov2/test_modeling_dinov2.py::Dinov2ModelTest::test_torch_export <- tests/test_modeling_common.py 
tests/models/dinov2_with_registers/test_modeling_dinov2_with_registers.py::Dinov2WithRegistersModelTest::test_torch_export <- tests/test_modeling_common.py 
[gw7] [  8%] PASSED tests/models/blenderbot_small/test_modeling_blenderbot_small.py::BlenderbotSmallModelTest::test_torch_export <- tests/test_modeling_common.py 
tests/models/blenderbot_small/test_modeling_blenderbot_small.py::BlenderbotSmallStandaloneDecoderModelTest::test_torch_export <- tests/test_modeling_common.py 
[gw40] [  8%] PASSED tests/models/csm/test_modeling_csm.py::CsmForConditionalGenerationTest::test_torch_export <- tests/test_modeling_common.py 
tests/models/ctrl/test_modeling_ctrl.py::CTRLModelTest::test_torch_export <- tests/test_modeling_common.py 
[gw16] [  9%] PASSED tests/models/blip_2/test_modeling_blip_2.py::Blip2TextRetrievalModelTest::test_torch_export <- tests/test_modeling_common.py 
tests/models/bloom/test_modeling_bloom.py::BloomModelTest::test_torch_export <- tests/test_modeling_common.py 
[gw14] [  9%] PASSED tests/models/apertus/test_modeling_apertus.py::ApertusModelTest::test_torch_export <- tests/test_modeling_common.py 
tests/models/arcee/test_modeling_arcee.py::ArceeModelTest::test_torch_export <- tests/test_modeling_common.py 
[gw42] [  9%] PASSED tests/models/dbrx/test_modeling_dbrx.py::DbrxModelTest::test_torch_export <- tests/test_modeling_common.py 
tests/models/deberta/test_modeling_deberta.py::DebertaModelTest::test_torch_export <- tests/test_modeling_common.py 
[gw13] [  9%] PASSED tests/models/blenderbot/test_modeling_blenderbot.py::BlenderbotModelTest::test_torch_export <- tests/test_modeling_common.py 
tests/models/blenderbot/test_modeling_blenderbot.py::BlenderbotStandaloneDecoderModelTest::test_torch_export <- tests/test_modeling_common.py 
[gw6] [  9%] PASSED tests/models/esm/test_modeling_esm.py::EsmModelTest::test_torch_export <- tests/test_modeling_common.py 
tests/models/git/test_modeling_git.py::GitVisionModelTest::test_torch_export <- tests/test_modeling_common.py 
[gw23] [ 10%] PASSED tests/models/deepseek_vl/test_modeling_deepseek_vl.py::DeepseekVLModelTest::test_torch_export <- tests/test_modeling_common.py 
tests/models/deepseek_vl_hybrid/test_modeling_deepseek_vl_hybrid.py::DeepseekVLHybridModelTest::test_torch_export <- tests/test_modeling_common.py 
[gw39] [ 10%] PASSED tests/models/distilbert/test_modeling_distilbert.py::DistilBertModelTest::test_torch_export <- tests/test_modeling_common.py 
tests/models/doge/test_modeling_doge.py::DogeModelTest::test_torch_export <- tests/test_modeling_common.py 
[gw4] [ 10%] PASSED tests/models/align/test_modeling_align.py::AlignVisionModelTest::test_torch_export <- tests/test_modeling_common.py 
tests/models/align/test_modeling_align.py::AlignTextModelTest::test_torch_export <- tests/test_modeling_common.py 
[gw31] [ 10%] PASSED tests/models/blip/test_modeling_blip.py::BlipTextImageModelTest::test_torch_export <- tests/test_modeling_common.py 
[gw37] [ 10%] PASSED tests/models/cohere/test_modeling_cohere.py::CohereModelTest::test_torch_export <- tests/test_modeling_common.py 
tests/models/funnel/test_modeling_funnel.py::FunnelModelTest::test_torch_export <- tests/test_modeling_common.py 
tests/models/flava/test_modeling_flava.py::FlavaTextModelTest::test_torch_export <- tests/test_modeling_common.py 
[gw11] [ 11%] PASSED tests/models/encodec/test_modeling_encodec.py::EncodecModelTest::test_torch_export <- tests/test_modeling_common.py 
tests/models/fsmt/test_modeling_fsmt.py::FSMTModelTest::test_torch_export <- tests/test_modeling_common.py 
[gw51] [ 11%] PASSED tests/models/funnel/test_modeling_funnel.py::FunnelBaseModelTest::test_torch_export <- tests/test_modeling_common.py 
tests/models/gemma3n/test_modeling_gemma3n.py::Gemma3nAudioModelTest::test_torch_export <- tests/test_modeling_common.py 
[gw51] [ 11%] SKIPPED tests/models/gemma3n/test_modeling_gemma3n.py::Gemma3nAudioModelTest::test_torch_export <- tests/test_modeling_common.py 
tests/models/granite/test_modeling_granite.py::GraniteModelTest::test_torch_export <- tests/test_modeling_common.py 
[gw38] [ 11%] PASSED tests/models/bit/test_modeling_bit.py::BitModelTest::test_torch_export <- tests/test_modeling_common.py 
tests/models/bitnet/test_modeling_bitnet.py::BitNetModelTest::test_torch_export <- tests/test_modeling_common.py 
[gw63] [ 11%] PASSED tests/models/clipseg/test_modeling_clipseg.py::CLIPSegModelTest::test_torch_export <- tests/test_modeling_common.py 
tests/models/clvp/test_modeling_clvp.py::ClvpEncoderTest::test_torch_export <- tests/test_modeling_common.py 
[gw6] [ 12%] PASSED tests/models/git/test_modeling_git.py::GitVisionModelTest::test_torch_export <- tests/test_modeling_common.py 
tests/models/gpt_bigcode/test_modeling_gpt_bigcode.py::GPTBigCodeModelTest::test_torch_export <- tests/test_modeling_common.py 
[gw29] [ 12%] PASSED tests/models/blt/test_modeling_blt.py::BltModelTest::test_torch_export <- tests/test_modeling_common.py 
[gw7] [ 12%] PASSED tests/models/blenderbot_small/test_modeling_blenderbot_small.py::BlenderbotSmallStandaloneDecoderModelTest::test_torch_export <- tests/test_modeling_common.py 
tests/models/glm4_moe/test_modeling_glm4_moe.py::Glm4MoeModelTest::test_torch_export <- tests/test_modeling_common.py 
tests/models/bridgetower/test_modeling_bridgetower.py::BridgeTowerModelTest::test_torch_export <- tests/test_modeling_common.py 
[gw59] [ 12%] PASSED tests/models/esm/test_modeling_esmfold.py::EsmFoldModelTest::test_torch_export <- tests/test_modeling_common.py 
tests/models/flava/test_modeling_flava.py::FlavaImageCodebookTest::test_torch_export <- tests/test_modeling_common.py 
[gw58] [ 12%] PASSED tests/models/cohere2_vision/test_modeling_cohere2_vision.py::Cohere2ModelTest::test_torch_export <- tests/test_modeling_common.py 
tests/models/colpali/test_modeling_colpali.py::ColPaliForRetrievalModelTest::test_torch_export <- tests/test_modeling_common.py 
[gw53] [ 13%] PASSED tests/models/cohere2/test_modeling_cohere2.py::Cohere2ModelTest::test_torch_export <- tests/test_modeling_common.py 
tests/models/gemma/test_modeling_gemma.py::GemmaModelTest::test_torch_export <- tests/test_modeling_common.py 
[gw37] [ 13%] PASSED tests/models/flava/test_modeling_flava.py::FlavaTextModelTest::test_torch_export <- tests/test_modeling_common.py 
tests/models/gpt_oss/test_modeling_gpt_oss.py::GptOssModelTest::test_torch_export <- tests/test_modeling_common.py 
[gw19] [ 13%] PASSED tests/models/donut/test_modeling_donut_swin.py::DonutSwinModelTest::test_torch_export <- tests/test_modeling_common.py 
tests/models/dots1/test_modeling_dots1.py::Dots1ModelTest::test_torch_export <- tests/test_modeling_common.py 
[gw9] [ 13%] PASSED tests/models/blip/test_modeling_blip.py::BlipVQAModelTest::test_torch_export <- tests/test_modeling_common.py 
tests/models/gemma2/test_modeling_gemma2.py::Gemma2ModelTest::test_torch_export <- tests/test_modeling_common.py 
[gw36] [ 14%] PASSED tests/models/deberta_v2/test_modeling_deberta_v2.py::DebertaV2ModelTest::test_torch_export <- tests/test_modeling_common.py 
tests/models/decision_transformer/test_modeling_decision_transformer.py::DecisionTransformerModelTest::test_torch_export <- tests/test_modeling_common.py 
[gw4] [ 14%] PASSED tests/models/align/test_modeling_align.py::AlignTextModelTest::test_torch_export <- tests/test_modeling_common.py 
tests/models/gpt_neox/test_modeling_gpt_neox.py::GPTNeoXModelTest::test_torch_export <- tests/test_modeling_common.py 
[gw13] [ 14%] PASSED tests/models/blenderbot/test_modeling_blenderbot.py::BlenderbotStandaloneDecoderModelTest::test_torch_export <- tests/test_modeling_common.py 
tests/models/gpt2/test_modeling_gpt2.py::GPT2ModelTest::test_torch_export <- tests/test_modeling_common.py 
[gw30] [ 14%] PASSED tests/models/dac/test_modeling_dac.py::DacModelTest::test_torch_export <- tests/test_modeling_common.py 
tests/models/data2vec/test_modeling_data2vec_audio.py::Data2VecAudioModelTest::test_torch_export <- tests/test_modeling_common.py 
[gw8] [ 14%] PASSED tests/models/align/test_modeling_align.py::AlignModelTest::test_torch_export <- tests/test_modeling_common.py 
tests/models/altclip/test_modeling_altclip.py::AltCLIPVisionModelTest::test_torch_export <- tests/test_modeling_common.py 
[gw24] [ 15%] PASSED tests/models/clap/test_modeling_clap.py::ClapModelTest::test_torch_export <- tests/test_modeling_common.py 
tests/models/falcon_h1/test_modeling_falcon_h1.py::FalconH1ModelTest::test_torch_export <- tests/test_modeling_common.py 
[gw57] [ 15%] PASSED tests/models/emu3/test_modeling_emu3.py::Emu3Vision2TextModelTest::test_torch_export <- tests/test_modeling_common.py 
tests/models/ernie4_5_moe/test_modeling_ernie4_5_moe.py::Ernie4_5_MoeModelTest::test_torch_export <- tests/test_modeling_common.py 
[gw48] [ 15%] PASSED tests/models/diffllama/test_modeling_diffllama.py::DiffLlamaModelTest::test_torch_export <- tests/test_modeling_common.py 
tests/models/dinat/test_modeling_dinat.py::DinatModelTest::test_torch_export <- tests/test_modeling_common.py 
[gw48] [ 15%] SKIPPED tests/models/dinat/test_modeling_dinat.py::DinatModelTest::test_torch_export <- tests/test_modeling_common.py 
tests/models/idefics2/test_modeling_idefics2.py::Idefics2ModelTest::test_torch_export <- tests/test_modeling_common.py 
[gw63] [ 15%] PASSED tests/models/clvp/test_modeling_clvp.py::ClvpEncoderTest::test_torch_export <- tests/test_modeling_common.py 
tests/models/granitemoehybrid/test_modeling_granitemoehybrid.py::BambaModelTest::test_torch_export <- tests/test_modeling_common.py 
[gw20] [ 16%] PASSED tests/models/biogpt/test_modeling_biogpt.py::BioGptModelTest::test_torch_export <- tests/test_modeling_common.py 
[gw21] [ 16%] PASSED tests/models/aya_vision/test_modeling_aya_vision.py::AyaVisionModelTest::test_torch_export <- tests/test_modeling_common.py 
tests/models/florence2/test_modeling_florence2.py::Florence2ForConditionalGenerationModelTest::test_torch_export <- tests/test_modeling_common.py 
tests/models/bamba/test_modeling_bamba.py::BambaModelTest::test_torch_export <- tests/test_modeling_common.py 
[gw49] [ 16%] PASSED tests/models/dinov2_with_registers/test_modeling_dinov2_with_registers.py::Dinov2WithRegistersModelTest::test_torch_export <- tests/test_modeling_common.py 
tests/models/glm4/test_modeling_glm4.py::Glm4ModelTest::test_torch_export <- tests/test_modeling_common.py 
[gw26] [ 16%] PASSED tests/models/fastspeech2_conformer/test_modeling_fastspeech2_conformer.py::FastSpeech2ConformerWithHifiGanTest::test_torch_export <- tests/test_modeling_common.py 
tests/models/glm/test_modeling_glm.py::GlmModelTest::test_torch_export <- tests/test_modeling_common.py 
[gw8] [ 16%] PASSED tests/models/altclip/test_modeling_altclip.py::AltCLIPVisionModelTest::test_torch_export <- tests/test_modeling_common.py 
tests/models/ibert/test_modeling_ibert.py::IBertModelTest::test_torch_export <- tests/test_modeling_common.py 
[gw59] [ 17%] PASSED tests/models/flava/test_modeling_flava.py::FlavaImageCodebookTest::test_torch_export <- tests/test_modeling_common.py 
tests/models/groupvit/test_modeling_groupvit.py::GroupViTVisionModelTest::test_torch_export <- tests/test_modeling_common.py 
[gw50] [ 17%] PASSED tests/models/dinov3_convnext/test_modeling_dinov3_convnext.py::DINOv3ConvNextModelTest::test_torch_export <- tests/test_modeling_common.py 
tests/models/dinov3_vit/test_modeling_dinov3_vit.py::Dinov3ModelTest::test_torch_export <- tests/test_modeling_common.py 
[gw51] [ 17%] PASSED tests/models/granite/test_modeling_granite.py::GraniteModelTest::test_torch_export <- tests/test_modeling_common.py 
tests/models/granite_speech/test_modeling_granite_speech.py::GraniteSpeechForConditionalGenerationModelTest::test_torch_export <- tests/test_modeling_common.py 
[gw46] [ 17%] PASSED tests/models/dpt/test_modeling_dpt.py::DPTModelTest::test_torch_export <- tests/test_modeling_common.py 
tests/models/fuyu/test_modeling_fuyu.py::FuyuModelTest::test_torch_export <- tests/test_modeling_common.py 
[gw60] [ 18%] PASSED tests/models/data2vec/test_modeling_data2vec_text.py::Data2VecTextModelTest::test_torch_export <- tests/test_modeling_common.py 
tests/models/data2vec/test_modeling_data2vec_vision.py::Data2VecVisionModelTest::test_torch_export <- tests/test_modeling_common.py 
[gw40] [ 18%] PASSED tests/models/ctrl/test_modeling_ctrl.py::CTRLModelTest::test_torch_export <- tests/test_modeling_common.py 
tests/models/glm4v/test_modeling_glm4v.py::Glm4vModelTest::test_torch_export <- tests/test_modeling_common.py 
[gw27] [ 18%] FAILED tests/models/eomt/test_modeling_eomt.py::EomtForUniversalSegmentationTest::test_torch_export <- tests/test_modeling_common.py 
[gw55] [ 18%] PASSED tests/models/convbert/test_modeling_convbert.py::ConvBertModelTest::test_torch_export <- tests/test_modeling_common.py 
tests/models/convnext/test_modeling_convnext.py::ConvNextModelTest::test_torch_export <- tests/test_modeling_common.py 
tests/models/flava/test_modeling_flava.py::FlavaImageModelTest::test_torch_export <- tests/test_modeling_common.py 
[gw33] [ 18%] PASSED tests/models/bert/test_modeling_bert.py::BertModelTest::test_torch_export <- tests/test_modeling_common.py 
tests/models/bert_generation/test_modeling_bert_generation.py::BertGenerationEncoderTest::test_torch_export <- tests/test_modeling_common.py 
[gw56] [ 19%] PASSED tests/models/deepseek_v2/test_modeling_deepseek_v2.py::DeepseekV2ModelTest::test_torch_export <- tests/test_modeling_common.py 
tests/models/deepseek_v3/test_modeling_deepseek_v3.py::DeepseekV3ModelTest::test_torch_export <- tests/test_modeling_common.py 
[gw31] [ 19%] PASSED tests/models/funnel/test_modeling_funnel.py::FunnelModelTest::test_torch_export <- tests/test_modeling_common.py 
tests/models/gpt_neox_japanese/test_modeling_gpt_neox_japanese.py::GPTNeoXModelJapaneseTest::test_torch_export <- tests/test_modeling_common.py 
[gw27] [ 19%] PASSED tests/models/flava/test_modeling_flava.py::FlavaImageModelTest::test_torch_export <- tests/test_modeling_common.py 
tests/models/jetmoe/test_modeling_jetmoe.py::JetMoeModelTest::test_torch_export <- tests/test_modeling_common.py 
[gw36] [ 19%] PASSED tests/models/decision_transformer/test_modeling_decision_transformer.py::DecisionTransformerModelTest::test_torch_export <- tests/test_modeling_common.py 
[gw52] [ 19%] PASSED tests/models/evolla/test_modeling_evolla.py::EvollaModelTest::test_torch_export <- tests/test_modeling_common.py 
tests/models/hubert/test_modeling_hubert.py::HubertModelTest::test_torch_export <- tests/test_modeling_common.py 
tests/models/flex_olmo/test_modeling_flex_olmo.py::FlexOlmoModelTest::test_torch_export <- tests/test_modeling_common.py 
[gw38] [ 20%] PASSED tests/models/bitnet/test_modeling_bitnet.py::BitNetModelTest::test_torch_export <- tests/test_modeling_common.py 
tests/models/granitemoe/test_modeling_granitemoe.py::GraniteMoeModelTest::test_torch_export <- tests/test_modeling_common.py 
[gw12] [ 20%] PASSED tests/models/clap/test_modeling_clap.py::ClapAudioModelTest::test_torch_export <- tests/test_modeling_common.py 
tests/models/gemma3/test_modeling_gemma3.py::Gemma3TextModelTest::test_torch_export <- tests/test_modeling_common.py 
[gw1] [ 20%] PASSED tests/models/falcon/test_modeling_falcon.py::FalconModelTest::test_torch_export <- tests/test_modeling_common.py 
tests/models/flava/test_modeling_flava.py::FlavaForPreTrainingTest::test_torch_export <- tests/test_modeling_common.py 
[gw11] [ 20%] PASSED tests/models/fsmt/test_modeling_fsmt.py::FSMTModelTest::test_torch_export <- tests/test_modeling_common.py 
tests/models/gptj/test_modeling_gptj.py::GPTJModelTest::test_torch_export <- tests/test_modeling_common.py 
[gw22] [ 20%] PASSED tests/models/bros/test_modeling_bros.py::BrosModelTest::test_torch_export <- tests/test_modeling_common.py 
tests/models/canine/test_modeling_canine.py::CanineModelTest::test_torch_export <- tests/test_modeling_common.py 
[gw58] [ 21%] PASSED tests/models/colpali/test_modeling_colpali.py::ColPaliForRetrievalModelTest::test_torch_export <- tests/test_modeling_common.py 
tests/models/groupvit/test_modeling_groupvit.py::GroupViTTextModelTest::test_torch_export <- tests/test_modeling_common.py 
[gw6] [ 21%] PASSED tests/models/gpt_bigcode/test_modeling_gpt_bigcode.py::GPTBigCodeModelTest::test_torch_export <- tests/test_modeling_common.py 
tests/models/granitemoehybrid/test_modeling_granitemoehybrid.py::GraniteMoeHybridModelTest::test_torch_export <- tests/test_modeling_common.py 
[gw16] [ 21%] PASSED tests/models/bloom/test_modeling_bloom.py::BloomModelTest::test_torch_export <- tests/test_modeling_common.py 
tests/models/glm4v_moe/test_modeling_glm4v_moe.py::Glm4vMoeModelTest::test_torch_export <- tests/test_modeling_common.py 
[gw10] [ 21%] PASSED tests/models/aria/test_modeling_aria.py::AriaForConditionalGenerationModelTest::test_torch_export <- tests/test_modeling_common.py 
tests/models/audio_spectrogram_transformer/test_modeling_audio_spectrogram_transformer.py::ASTModelTest::test_torch_export <- tests/test_modeling_common.py 
[gw40] [ 22%] PASSED tests/models/glm4v/test_modeling_glm4v.py::Glm4vModelTest::test_torch_export <- tests/test_modeling_common.py 
tests/models/janus/test_modeling_janus.py::JanusVisionText2TextModelTest::test_torch_export <- tests/test_modeling_common.py 
[gw25] [ 22%] PASSED tests/models/efficientnet/test_modeling_efficientnet.py::EfficientNetModelTest::test_torch_export <- tests/test_modeling_common.py 
tests/models/electra/test_modeling_electra.py::ElectraModelTest::test_torch_export <- tests/test_modeling_common.py 
[gw33] [ 22%] PASSED tests/models/bert_generation/test_modeling_bert_generation.py::BertGenerationEncoderTest::test_torch_export <- tests/test_modeling_common.py 
tests/models/kosmos2/test_modeling_kosmos2.py::Kosmos2ModelTest::test_torch_export <- tests/test_modeling_common.py 
[gw41] [ 22%] PASSED tests/models/chameleon/test_modeling_chameleon.py::ChameleonVision2SeqModelTest::test_torch_export <- tests/test_modeling_common.py 
tests/models/git/test_modeling_git.py::GitModelTest::test_torch_export <- tests/test_modeling_common.py 
[gw50] [ 22%] PASSED tests/models/dinov3_vit/test_modeling_dinov3_vit.py::Dinov3ModelTest::test_torch_export <- tests/test_modeling_common.py 
tests/models/instructblipvideo/test_modeling_instructblipvideo.py::InstructBlipVideoVisionModelTest::test_torch_export <- tests/test_modeling_common.py 
[gw39] [ 23%] PASSED tests/models/doge/test_modeling_doge.py::DogeModelTest::test_torch_export <- tests/test_modeling_common.py 
tests/models/gpt_neo/test_modeling_gpt_neo.py::GPTNeoModelTest::test_torch_export <- tests/test_modeling_common.py 
[gw14] [ 23%] PASSED tests/models/arcee/test_modeling_arcee.py::ArceeModelTest::test_torch_export <- tests/test_modeling_common.py 
tests/models/glpn/test_modeling_glpn.py::GLPNModelTest::test_torch_export <- tests/test_modeling_common.py 
[gw7] [ 23%] PASSED tests/models/glm4_moe/test_modeling_glm4_moe.py::Glm4MoeModelTest::test_torch_export <- tests/test_modeling_common.py 
tests/models/grounding_dino/test_modeling_grounding_dino.py::GroundingDinoModelTest::test_torch_export <- tests/test_modeling_common.py 
[gw58] [ 23%] PASSED tests/models/groupvit/test_modeling_groupvit.py::GroupViTTextModelTest::test_torch_export <- tests/test_modeling_common.py 
tests/models/lightglue/test_modeling_lightglue.py::LightGlueModelTest::test_torch_export <- tests/test_modeling_common.py 
[gw0] [ 23%] PASSED tests/models/albert/test_modeling_albert.py::AlbertModelTest::test_torch_export <- tests/test_modeling_common.py 
tests/models/gemma3/test_modeling_gemma3.py::Gemma3Vision2TextModelTest::test_torch_export <- tests/test_modeling_common.py 
[gw5] [ 24%] PASSED tests/models/ernie/test_modeling_ernie.py::ErnieModelTest::test_torch_export <- tests/test_modeling_common.py 
[gw28] [ 24%] PASSED tests/models/depth_pro/test_modeling_depth_pro.py::DepthProModelTest::test_torch_export <- tests/test_modeling_common.py 
tests/models/falcon_mamba/test_modeling_falcon_mamba.py::FalconMambaModelTest::test_torch_export <- tests/test_modeling_common.py 
tests/models/fnet/test_modeling_fnet.py::FNetModelTest::test_torch_export <- tests/test_modeling_common.py 
[gw53] [ 24%] PASSED tests/models/gemma/test_modeling_gemma.py::GemmaModelTest::test_torch_export <- tests/test_modeling_common.py 
tests/models/groupvit/test_modeling_groupvit.py::GroupViTModelTest::test_torch_export <- tests/test_modeling_common.py 
[gw43] [ 24%] PASSED tests/models/bart/test_modeling_bart.py::BartModelTest::test_torch_export <- tests/test_modeling_common.py 
tests/models/ernie4_5/test_modeling_ernie4_5.py::Ernie4_5ModelTest::test_torch_export <- tests/test_modeling_common.py 
[gw32] [ 24%] PASSED tests/models/exaone4/test_modeling_exaone4.py::Exaone4ModelTest::test_torch_export <- tests/test_modeling_common.py 
tests/models/flava/test_modeling_flava.py::FlavaModelTest::test_torch_export <- tests/test_modeling_common.py 
[gw42] [ 25%] PASSED tests/models/deberta/test_modeling_deberta.py::DebertaModelTest::test_torch_export <- tests/test_modeling_common.py 
tests/models/got_ocr2/test_modeling_got_ocr2.py::GotOcr2ModelTest::test_torch_export <- tests/test_modeling_common.py 
[gw46] [ 25%] PASSED tests/models/fuyu/test_modeling_fuyu.py::FuyuModelTest::test_torch_export <- tests/test_modeling_common.py 
tests/models/internvl/test_modeling_internvl.py::InternVLModelTest::test_torch_export <- tests/test_modeling_common.py 
[gw50] [ 25%] PASSED tests/models/instructblipvideo/test_modeling_instructblipvideo.py::InstructBlipVideoVisionModelTest::test_torch_export <- tests/test_modeling_common.py 
tests/models/longformer/test_modeling_longformer.py::LongformerModelTest::test_torch_export <- tests/test_modeling_common.py 
[gw1] [ 25%] FAILED tests/models/flava/test_modeling_flava.py::FlavaForPreTrainingTest::test_torch_export <- tests/test_modeling_common.py 
tests/models/lfm2/test_modeling_lfm2.py::Lfm2ModelTest::test_torch_export <- tests/test_modeling_common.py 
[gw10] [ 25%] PASSED tests/models/audio_spectrogram_transformer/test_modeling_audio_spectrogram_transformer.py::ASTModelTest::test_torch_export <- tests/test_modeling_common.py 
tests/models/llava/test_modeling_llava.py::LlavaForConditionalGenerationModelTest::test_torch_export <- tests/test_modeling_common.py 
[gw23] [ 26%] PASSED tests/models/deepseek_vl_hybrid/test_modeling_deepseek_vl_hybrid.py::DeepseekVLHybridModelTest::test_torch_export <- tests/test_modeling_common.py 
tests/models/gpt_bigcode/test_modeling_gpt_bigcode.py::GPTBigCodeMHAModelTest::test_torch_export <- tests/test_modeling_common.py 
[gw16] [ 26%] PASSED tests/models/glm4v_moe/test_modeling_glm4v_moe.py::Glm4vMoeModelTest::test_torch_export <- tests/test_modeling_common.py 
tests/models/llama/test_modeling_llama.py::LlamaModelTest::test_torch_export <- tests/test_modeling_common.py 
[gw31] [ 26%] PASSED tests/models/gpt_neox_japanese/test_modeling_gpt_neox_japanese.py::GPTNeoXModelJapaneseTest::test_torch_export <- tests/test_modeling_common.py 
tests/models/kyutai_speech_to_text/test_modeling_kyutai_speech_to_text.py::KyutaiSpeechToTextModelTest::test_torch_export <- tests/test_modeling_common.py 
[gw58] [ 26%] PASSED tests/models/lightglue/test_modeling_lightglue.py::LightGlueModelTest::test_torch_export <- tests/test_modeling_common.py 
tests/models/longt5/test_modeling_longt5.py::LongT5EncoderOnlyTGlobalModelTest::test_torch_export <- tests/test_modeling_common.py 
[gw4] [ 27%] PASSED tests/models/gpt_neox/test_modeling_gpt_neox.py::GPTNeoXModelTest::test_torch_export <- tests/test_modeling_common.py 
tests/models/hubert/test_modeling_hubert.py::HubertRobustModelTest::test_torch_export <- tests/test_modeling_common.py 
[gw57] [ 27%] PASSED tests/models/ernie4_5_moe/test_modeling_ernie4_5_moe.py::Ernie4_5_MoeModelTest::test_torch_export <- tests/test_modeling_common.py 
tests/models/idefics/test_modeling_idefics.py::IdeficsForVisionText2TextTest::test_torch_export <- tests/test_modeling_common.py 
[gw19] [ 27%] PASSED tests/models/dots1/test_modeling_dots1.py::Dots1ModelTest::test_torch_export <- tests/test_modeling_common.py 
tests/models/hgnet_v2/test_modeling_hgnet_v2.py::HGNetV2ForImageClassificationTest::test_torch_export <- tests/test_modeling_common.py 
[gw2] [ 27%] PASSED tests/models/beit/test_modeling_beit.py::BeitModelTest::test_torch_export <- tests/test_modeling_common.py 
tests/models/flaubert/test_modeling_flaubert.py::FlaubertModelTest::test_torch_export <- tests/test_modeling_common.py 
[gw54] [ 27%] PASSED tests/models/convnextv2/test_modeling_convnextv2.py::ConvNextV2ModelTest::test_torch_export <- tests/test_modeling_common.py 
tests/models/cpmant/test_modeling_cpmant.py::CpmAntModelTest::test_torch_export <- tests/test_modeling_common.py 
[gw48] [ 28%] PASSED tests/models/idefics2/test_modeling_idefics2.py::Idefics2ModelTest::test_torch_export <- tests/test_modeling_common.py 
tests/models/idefics2/test_modeling_idefics2.py::Idefics2ForConditionalGenerationModelTest::test_torch_export <- tests/test_modeling_common.py 
[gw60] [ 28%] PASSED tests/models/data2vec/test_modeling_data2vec_vision.py::Data2VecVisionModelTest::test_torch_export <- tests/test_modeling_common.py 
tests/models/jamba/test_modeling_jamba.py::JambaModelTest::test_torch_export <- tests/test_modeling_common.py 
[gw59] [ 28%] PASSED tests/models/groupvit/test_modeling_groupvit.py::GroupViTVisionModelTest::test_torch_export <- tests/test_modeling_common.py 
tests/models/instructblip/test_modeling_instructblip.py::InstructBlipForConditionalGenerationDecoderOnlyTest::test_torch_export <- tests/test_modeling_common.py 
[gw21] [ 28%] PASSED tests/models/bamba/test_modeling_bamba.py::BambaModelTest::test_torch_export <- tests/test_modeling_common.py 
tests/models/ijepa/test_modeling_ijepa.py::IJepaModelTest::test_torch_export <- tests/test_modeling_common.py 
[gw20] [ 28%] PASSED tests/models/florence2/test_modeling_florence2.py::Florence2ForConditionalGenerationModelTest::test_torch_export <- tests/test_modeling_common.py 
[gw15] [ 29%] PASSED tests/models/blip_2/test_modeling_blip_2.py::Blip2ModelTest::test_torch_export <- tests/test_modeling_common.py 
[gw63] [ 29%] PASSED tests/models/granitemoehybrid/test_modeling_granitemoehybrid.py::BambaModelTest::test_torch_export <- tests/test_modeling_common.py 
tests/models/idefics3/test_modeling_idefics3.py::Idefics3ModelTest::test_torch_export <- tests/test_modeling_common.py 
tests/models/idefics3/test_modeling_idefics3.py::Idefics3ForConditionalGenerationModelTest::test_torch_export <- tests/test_modeling_common.py 
tests/models/gemma3n/test_modeling_gemma3n.py::Gemma3nTextModelTest::test_torch_export <- tests/test_modeling_common.py 
[gw51] [ 29%] PASSED tests/models/granite_speech/test_modeling_granite_speech.py::GraniteSpeechForConditionalGenerationModelTest::test_torch_export <- tests/test_modeling_common.py 
tests/models/instructblipvideo/test_modeling_instructblipvideo.py::InstructBlipVideoForConditionalGenerationDecoderOnlyTest::test_torch_export <- tests/test_modeling_common.py 
[gw26] [ 29%] PASSED tests/models/glm/test_modeling_glm.py::GlmModelTest::test_torch_export <- tests/test_modeling_common.py 
tests/models/informer/test_modeling_informer.py::InformerModelTest::test_torch_export <- tests/test_modeling_common.py 
[gw1] [ 29%] PASSED tests/models/lfm2/test_modeling_lfm2.py::Lfm2ModelTest::test_torch_export <- tests/test_modeling_common.py 
tests/models/maskformer/test_modeling_maskformer.py::MaskFormerModelTest::test_torch_export <- tests/test_modeling_common.py 
[gw37] [ 30%] PASSED tests/models/gpt_oss/test_modeling_gpt_oss.py::GptOssModelTest::test_torch_export <- tests/test_modeling_common.py 
tests/models/helium/test_modeling_helium.py::HeliumModelTest::test_torch_export <- tests/test_modeling_common.py 
[gw49] [ 30%] PASSED tests/models/glm4/test_modeling_glm4.py::Glm4ModelTest::test_torch_export <- tests/test_modeling_common.py 
tests/models/imagegpt/test_modeling_imagegpt.py::ImageGPTModelTest::test_torch_export <- tests/test_modeling_common.py 
[gw50] [ 30%] PASSED tests/models/longformer/test_modeling_longformer.py::LongformerModelTest::test_torch_export <- tests/test_modeling_common.py 
tests/models/mask2former/test_modeling_mask2former.py::Mask2FormerModelTest::test_torch_export <- tests/test_modeling_common.py 
[gw32] [ 30%] PASSED tests/models/flava/test_modeling_flava.py::FlavaModelTest::test_torch_export <- tests/test_modeling_common.py 
[gw13] [ 31%] PASSED tests/models/gpt2/test_modeling_gpt2.py::GPT2ModelTest::test_torch_export <- tests/test_modeling_common.py 
tests/models/marian/test_modeling_marian.py::MarianModelTest::test_torch_export <- tests/test_modeling_common.py 
[gw9] [ 31%] PASSED tests/models/gemma2/test_modeling_gemma2.py::Gemma2ModelTest::test_torch_export <- tests/test_modeling_common.py 
tests/models/hunyuan_v1_dense/test_modeling_hunyuan_v1_dense.py::HunYuanDenseV1ModelTest::test_torch_export <- tests/test_modeling_common.py 
[gw36] [ 31%] PASSED tests/models/hubert/test_modeling_hubert.py::HubertModelTest::test_torch_export <- tests/test_modeling_common.py 
tests/models/hiera/test_modeling_hiera.py::HieraModelTest::test_torch_export <- tests/test_modeling_common.py 
tests/models/layoutlmv2/test_modeling_layoutlmv2.py::LayoutLMv2ModelTest::test_torch_export <- tests/test_modeling_common.py 
[gw36] [ 31%] SKIPPED tests/models/layoutlmv2/test_modeling_layoutlmv2.py::LayoutLMv2ModelTest::test_torch_export <- tests/test_modeling_common.py 
tests/models/moonshine/test_modeling_moonshine.py::MoonshineModelTest::test_torch_export <- tests/test_modeling_common.py 
[gw41] [ 31%] PASSED tests/models/git/test_modeling_git.py::GitModelTest::test_torch_export <- tests/test_modeling_common.py 
tests/models/longcat_flash/test_modeling_longcat_flash.py::LongcatFlashModelTest::test_torch_export <- tests/test_modeling_common.py 
[gw45] [ 32%] PASSED tests/models/edgetam/test_modeling_edgetam.py::EdgeTamModelTest::test_torch_export <- tests/test_modeling_common.py 
tests/models/efficientloftr/test_modeling_efficientloftr.py::EfficientLoFTRModelTest::test_torch_export <- tests/test_modeling_common.py 
[gw52] [ 32%] PASSED tests/models/flex_olmo/test_modeling_flex_olmo.py::FlexOlmoModelTest::test_torch_export <- tests/test_modeling_common.py 
tests/models/layoutlmv3/test_modeling_layoutlmv3.py::LayoutLMv3ModelTest::test_torch_export <- tests/test_modeling_common.py 
[gw43] [ 32%] PASSED tests/models/ernie4_5/test_modeling_ernie4_5.py::Ernie4_5ModelTest::test_torch_export <- tests/test_modeling_common.py 
tests/models/mamba2/test_modeling_mamba2.py::Mamba2ModelTest::test_torch_export <- tests/test_modeling_common.py 
[gw21] [ 32%] PASSED tests/models/ijepa/test_modeling_ijepa.py::IJepaModelTest::test_torch_export <- tests/test_modeling_common.py 
tests/models/mistral3/test_modeling_mistral3.py::Mistral3ModelTest::test_torch_export <- tests/test_modeling_common.py 
[gw58] [ 32%] PASSED tests/models/longt5/test_modeling_longt5.py::LongT5EncoderOnlyTGlobalModelTest::test_torch_export <- tests/test_modeling_common.py 
tests/models/metaclip_2/test_modeling_metaclip_2.py::MetaClip2VisionModelTest::test_torch_export <- tests/test_modeling_common.py 
[gw33] [ 33%] PASSED tests/models/kosmos2/test_modeling_kosmos2.py::Kosmos2ModelTest::test_torch_export <- tests/test_modeling_common.py 
tests/models/llava_onevision/test_modeling_llava_onevision.py::LlavaOnevisionForConditionalGenerationModelTest::test_torch_export <- tests/test_modeling_common.py 
[gw11] [ 33%] PASSED tests/models/gptj/test_modeling_gptj.py::GPTJModelTest::test_torch_export <- tests/test_modeling_common.py 
tests/models/lfm2_moe/test_modeling_lfm2_moe.py::Lfm2MoeModelTest::test_torch_export <- tests/test_modeling_common.py 
[gw23] [ 33%] PASSED tests/models/gpt_bigcode/test_modeling_gpt_bigcode.py::GPTBigCodeMHAModelTest::test_torch_export <- tests/test_modeling_common.py 
tests/models/mbart/test_modeling_mbart.py::MBartModelTest::test_torch_export <- tests/test_modeling_common.py 
[gw21] [ 33%] PASSED tests/models/mistral3/test_modeling_mistral3.py::Mistral3ModelTest::test_torch_export <- tests/test_modeling_common.py 
tests/models/mt5/test_modeling_mt5.py::MT5ModelTest::test_torch_export <- tests/test_modeling_common.py 
[gw28] [ 33%] PASSED tests/models/fnet/test_modeling_fnet.py::FNetModelTest::test_torch_export <- tests/test_modeling_common.py 
tests/models/m2m_100/test_modeling_m2m_100.py::M2M100ModelTest::test_torch_export <- tests/test_modeling_common.py 
[gw38] [ 34%] PASSED tests/models/granitemoe/test_modeling_granitemoe.py::GraniteMoeModelTest::test_torch_export <- tests/test_modeling_common.py 
tests/models/led/test_modeling_led.py::LEDModelTest::test_torch_export <- tests/test_modeling_common.py 
[gw56] [ 34%] PASSED tests/models/deepseek_v3/test_modeling_deepseek_v3.py::DeepseekV3ModelTest::test_torch_export <- tests/test_modeling_common.py 
tests/models/kosmos2_5/test_modeling_kosmos2_5.py::Kosmos2_5ModelTest::test_torch_export <- tests/test_modeling_common.py 
[gw57] [ 34%] PASSED tests/models/idefics/test_modeling_idefics.py::IdeficsForVisionText2TextTest::test_torch_export <- tests/test_modeling_common.py 
tests/models/metaclip_2/test_modeling_metaclip_2.py::MetaClip2ModelTest::test_torch_export <- tests/test_modeling_common.py 
[gw10] [ 34%] PASSED tests/models/llava/test_modeling_llava.py::LlavaForConditionalGenerationModelTest::test_torch_export <- tests/test_modeling_common.py 
tests/models/maskformer/test_modeling_maskformer_swin.py::MaskFormerSwinModelTest::test_torch_export <- tests/test_modeling_common.py 
[gw31] [ 35%] PASSED tests/models/kyutai_speech_to_text/test_modeling_kyutai_speech_to_text.py::KyutaiSpeechToTextModelTest::test_torch_export <- tests/test_modeling_common.py 
tests/models/megatron_bert/test_modeling_megatron_bert.py::MegatronBertModelTest::test_torch_export <- tests/test_modeling_common.py 
[gw54] [ 35%] PASSED tests/models/cpmant/test_modeling_cpmant.py::CpmAntModelTest::test_torch_export <- tests/test_modeling_common.py 
tests/models/mimi/test_modeling_mimi.py::MimiModelTest::test_torch_export <- tests/test_modeling_common.py 
[gw46] [ 35%] PASSED tests/models/internvl/test_modeling_internvl.py::InternVLModelTest::test_torch_export <- tests/test_modeling_common.py 
tests/models/markuplm/test_modeling_markuplm.py::MarkupLMModelTest::test_torch_export <- tests/test_modeling_common.py 
[gw12] [ 35%] PASSED tests/models/gemma3/test_modeling_gemma3.py::Gemma3TextModelTest::test_torch_export <- tests/test_modeling_common.py 
tests/models/levit/test_modeling_levit.py::LevitModelTest::test_torch_export <- tests/test_modeling_common.py 
[gw58] [ 35%] PASSED tests/models/metaclip_2/test_modeling_metaclip_2.py::MetaClip2VisionModelTest::test_torch_export <- tests/test_modeling_common.py 
tests/models/mt5/test_modeling_mt5.py::MT5EncoderOnlyModelTest::test_torch_export <- tests/test_modeling_common.py 
[gw33] [ 36%] PASSED tests/models/llava_onevision/test_modeling_llava_onevision.py::LlavaOnevisionForConditionalGenerationModelTest::test_torch_export <- tests/test_modeling_common.py 
tests/models/musicgen/test_modeling_musicgen.py::MusicgenDecoderTest::test_torch_export <- tests/test_modeling_common.py 
[gw30] [ 36%] PASSED tests/models/data2vec/test_modeling_data2vec_audio.py::Data2VecAudioModelTest::test_torch_export <- tests/test_modeling_common.py 
tests/models/hunyuan_v1_moe/test_modeling_hunyuan_v1_moe.py::HunYuanMoEV1ModelTest::test_torch_export <- tests/test_modeling_common.py 
[gw4] [ 36%] PASSED tests/models/hubert/test_modeling_hubert.py::HubertRobustModelTest::test_torch_export <- tests/test_modeling_common.py 
tests/models/metaclip_2/test_modeling_metaclip_2.py::MetaClip2TextModelTest::test_torch_export <- tests/test_modeling_common.py 
[gw24] [ 36%] PASSED tests/models/falcon_h1/test_modeling_falcon_h1.py::FalconH1ModelTest::test_torch_export <- tests/test_modeling_common.py 
[gw9] [ 36%] PASSED tests/models/hiera/test_modeling_hiera.py::HieraModelTest::test_torch_export <- tests/test_modeling_common.py 
tests/models/idefics/test_modeling_idefics.py::IdeficsModelTest::test_torch_export <- tests/test_modeling_common.py 
tests/models/modernbert_decoder/test_modeling_modernbert_decoder.py::ModernBertDecoderModelTest::test_torch_export <- tests/test_modeling_common.py 
[gw17] [ 37%] PASSED tests/models/autoformer/test_modeling_autoformer.py::AutoformerModelTest::test_torch_export <- tests/test_modeling_common.py 
tests/models/gemma3n/test_modeling_gemma3n.py::Gemma3nVision2TextModelTest::test_torch_export <- tests/test_modeling_common.py 
[gw17] [ 37%] SKIPPED tests/models/gemma3n/test_modeling_gemma3n.py::Gemma3nVision2TextModelTest::test_torch_export <- tests/test_modeling_common.py 
tests/models/owlv2/test_modeling_owlv2.py::Owlv2TextModelTest::test_torch_export <- tests/test_modeling_common.py 
[gw5] [ 37%] PASSED tests/models/falcon_mamba/test_modeling_falcon_mamba.py::FalconMambaModelTest::test_torch_export <- tests/test_modeling_common.py 
tests/models/lxmert/test_modeling_lxmert.py::LxmertModelTest::test_torch_export <- tests/test_modeling_common.py 
[gw20] [ 37%] PASSED tests/models/idefics3/test_modeling_idefics3.py::Idefics3ForConditionalGenerationModelTest::test_torch_export <- tests/test_modeling_common.py 
tests/models/mixtral/test_modeling_mixtral.py::MixtralModelTest::test_torch_export <- tests/test_modeling_common.py 
[gw57] [ 37%] PASSED tests/models/metaclip_2/test_modeling_metaclip_2.py::MetaClip2ModelTest::test_torch_export <- tests/test_modeling_common.py 
[gw8] [ 38%] PASSED tests/models/ibert/test_modeling_ibert.py::IBertModelTest::test_torch_export <- tests/test_modeling_common.py 
tests/models/nllb_moe/test_modeling_nllb_moe.py::NllbMoeModelTest::test_torch_export <- tests/test_modeling_common.py 
tests/models/instructblip/test_modeling_instructblip.py::InstructBlipVisionModelTest::test_torch_export <- tests/test_modeling_common.py 
[gw48] [ 38%] PASSED tests/models/idefics2/test_modeling_idefics2.py::Idefics2ForConditionalGenerationModelTest::test_torch_export <- tests/test_modeling_common.py 
tests/models/minimax/test_modeling_minimax.py::MiniMaxModelTest::test_torch_export <- tests/test_modeling_common.py 
[gw39] [ 38%] PASSED tests/models/gpt_neo/test_modeling_gpt_neo.py::GPTNeoModelTest::test_torch_export <- tests/test_modeling_common.py 
tests/models/longt5/test_modeling_longt5.py::LongT5ModelTest::test_torch_export <- tests/test_modeling_common.py 
[gw63] [ 38%] PASSED tests/models/idefics3/test_modeling_idefics3.py::Idefics3ModelTest::test_torch_export <- tests/test_modeling_common.py 
tests/models/mllama/test_modeling_mllama.py::MllamaForCausalLMModelTest::test_torch_export <- tests/test_modeling_common.py 
[gw25] [ 38%] PASSED tests/models/electra/test_modeling_electra.py::ElectraModelTest::test_torch_export <- tests/test_modeling_common.py 
tests/models/llava_next_video/test_modeling_llava_next_video.py::LlavaNextVideoForConditionalGenerationModelTest::test_torch_export <- tests/test_modeling_common.py 
[gw11] [ 39%] PASSED tests/models/lfm2_moe/test_modeling_lfm2_moe.py::Lfm2MoeModelTest::test_torch_export <- tests/test_modeling_common.py 
tests/models/musicgen/test_modeling_musicgen.py::MusicgenTest::test_torch_export <- tests/test_modeling_common.py 
[gw43] [ 39%] PASSED tests/models/mamba2/test_modeling_mamba2.py::Mamba2ModelTest::test_torch_export <- tests/test_modeling_common.py 
tests/models/mra/test_modeling_mra.py::MraModelTest::test_torch_export <- tests/test_modeling_common.py 
[gw55] [ 39%] PASSED tests/models/convnext/test_modeling_convnext.py::ConvNextModelTest::test_torch_export <- tests/test_modeling_common.py 
tests/models/janus/test_modeling_janus.py::JanusVQModelTest::test_torch_export <- tests/test_modeling_common.py 
[gw49] [ 39%] PASSED tests/models/imagegpt/test_modeling_imagegpt.py::ImageGPTModelTest::test_torch_export <- tests/test_modeling_common.py 
[gw40] [ 40%] PASSED tests/models/janus/test_modeling_janus.py::JanusVisionText2TextModelTest::test_torch_export <- tests/test_modeling_common.py 
tests/models/llava_next/test_modeling_llava_next.py::LlavaNextForConditionalGenerationModelTest::test_torch_export <- tests/test_modeling_common.py 
tests/models/mobilenet_v2/test_modeling_mobilenet_v2.py::MobileNetV2ModelTest::test_torch_export <- tests/test_modeling_common.py 
[gw8] [ 40%] PASSED tests/models/instructblip/test_modeling_instructblip.py::InstructBlipVisionModelTest::test_torch_export <- tests/test_modeling_common.py 
tests/models/owlvit/test_modeling_owlvit.py::OwlViTModelTest::test_torch_export <- tests/test_modeling_common.py 
[gw19] [ 40%] PASSED tests/models/hgnet_v2/test_modeling_hgnet_v2.py::HGNetV2ForImageClassificationTest::test_torch_export <- tests/test_modeling_common.py 
tests/models/metaclip_2/test_modeling_metaclip_2.py::MetaClip2ForImageClassificationModelTest::test_torch_export <- tests/test_modeling_common.py 
[gw53] [ 40%] PASSED tests/models/groupvit/test_modeling_groupvit.py::GroupViTModelTest::test_torch_export <- tests/test_modeling_common.py 
tests/models/mamba/test_modeling_mamba.py::MambaModelTest::test_torch_export <- tests/test_modeling_common.py 
[gw38] [ 40%] PASSED tests/models/led/test_modeling_led.py::LEDModelTest::test_torch_export <- tests/test_modeling_common.py 
tests/models/mvp/test_modeling_mvp.py::MvpStandaloneDecoderModelTest::test_torch_export <- tests/test_modeling_common.py 
[gw62] [ 41%] PASSED tests/models/detr/test_modeling_detr.py::DetrModelTest::test_torch_export <- tests/test_modeling_common.py 
[gw16] [ 41%] PASSED tests/models/llama/test_modeling_llama.py::LlamaModelTest::test_torch_export <- tests/test_modeling_common.py 
tests/models/dia/test_modeling_dia.py::DiaModelTest::test_torch_export <- tests/test_modeling_common.py 
tests/models/mbart/test_modeling_mbart.py::MBartStandaloneDecoderModelTest::test_torch_export <- tests/test_modeling_common.py 
[gw60] [ 41%] PASSED tests/models/jamba/test_modeling_jamba.py::JambaModelTest::test_torch_export <- tests/test_modeling_common.py 
tests/models/ministral/test_modeling_ministral.py::MinistralModelTest::test_torch_export <- tests/test_modeling_common.py 
[gw42] [ 41%] PASSED tests/models/got_ocr2/test_modeling_got_ocr2.py::GotOcr2ModelTest::test_torch_export <- tests/test_modeling_common.py 
tests/models/marian/test_modeling_marian.py::MarianStandaloneDecoderModelTest::test_torch_export <- tests/test_modeling_common.py 
[gw4] [ 41%] PASSED tests/models/metaclip_2/test_modeling_metaclip_2.py::MetaClip2TextModelTest::test_torch_export <- tests/test_modeling_common.py 
tests/models/opt/test_modeling_opt.py::OPTModelTest::test_torch_export <- tests/test_modeling_common.py 
[gw32] [ 42%] PASSED tests/models/marian/test_modeling_marian.py::MarianModelTest::test_torch_export <- tests/test_modeling_common.py 
tests/models/mobilevitv2/test_modeling_mobilevitv2.py::MobileViTV2ModelTest::test_torch_export <- tests/test_modeling_common.py 
[gw13] [ 42%] PASSED tests/models/hunyuan_v1_dense/test_modeling_hunyuan_v1_dense.py::HunYuanDenseV1ModelTest::test_torch_export <- tests/test_modeling_common.py 
tests/models/modernbert/test_modeling_modernbert.py::ModernBertModelTest::test_torch_export <- tests/test_modeling_common.py 
[gw58] [ 42%] PASSED tests/models/mt5/test_modeling_mt5.py::MT5EncoderOnlyModelTest::test_torch_export <- tests/test_modeling_common.py 
tests/models/omdet_turbo/test_modeling_omdet_turbo.py::OmDetTurboModelTest::test_torch_export <- tests/test_modeling_common.py 
[gw63] [ 42%] PASSED tests/models/mllama/test_modeling_mllama.py::MllamaForCausalLMModelTest::test_torch_export <- tests/test_modeling_common.py 
tests/models/paligemma2/test_modeling_paligemma2.py::PaliGemma2ForConditionalGenerationModelTest::test_torch_export <- tests/test_modeling_common.py 
[gw41] [ 42%] PASSED tests/models/longcat_flash/test_modeling_longcat_flash.py::LongcatFlashModelTest::test_torch_export <- tests/test_modeling_common.py 
[gw34] [ 43%] PASSED tests/models/dpt/test_modeling_dpt_hybrid.py::DPTModelTest::test_torch_export <- tests/test_modeling_common.py 
tests/models/focalnet/test_modeling_focalnet.py::FocalNetModelTest::test_torch_export <- tests/test_modeling_common.py 
tests/models/moshi/test_modeling_moshi.py::MoshiTest::test_torch_export <- tests/test_modeling_common.py 
[gw25] [ 43%] PASSED tests/models/llava_next_video/test_modeling_llava_next_video.py::LlavaNextVideoForConditionalGenerationModelTest::test_torch_export <- tests/test_modeling_common.py 
tests/models/parakeet/test_modeling_parakeet.py::ParakeetEncoderModelTest::test_torch_export <- tests/test_modeling_common.py 
[gw40] [ 43%] PASSED tests/models/llava_next/test_modeling_llava_next.py::LlavaNextForConditionalGenerationModelTest::test_torch_export <- tests/test_modeling_common.py 
tests/models/pegasus/test_modeling_pegasus.py::PegasusStandaloneDecoderModelTest::test_torch_export <- tests/test_modeling_common.py 
[gw19] [ 43%] PASSED tests/models/metaclip_2/test_modeling_metaclip_2.py::MetaClip2ForImageClassificationModelTest::test_torch_export <- tests/test_modeling_common.py 
tests/models/pegasus_x/test_modeling_pegasus_x.py::PegasusXStandaloneDecoderModelTest::test_torch_export <- tests/test_modeling_common.py 
[gw59] [ 44%] PASSED tests/models/instructblip/test_modeling_instructblip.py::InstructBlipForConditionalGenerationDecoderOnlyTest::test_torch_export <- tests/test_modeling_common.py 
tests/models/mistral/test_modeling_mistral.py::MistralModelTest::test_torch_export <- tests/test_modeling_common.py 
[gw57] [ 44%] PASSED tests/models/nllb_moe/test_modeling_nllb_moe.py::NllbMoeModelTest::test_torch_export <- tests/test_modeling_common.py 
tests/models/owlvit/test_modeling_owlvit.py::OwlViTTextModelTest::test_torch_export <- tests/test_modeling_common.py 
[gw37] [ 44%] PASSED tests/models/helium/test_modeling_helium.py::HeliumModelTest::test_torch_export <- tests/test_modeling_common.py 
tests/models/mobilenet_v1/test_modeling_mobilenet_v1.py::MobileNetV1ModelTest::test_torch_export <- tests/test_modeling_common.py 
[gw22] [ 44%] PASSED tests/models/canine/test_modeling_canine.py::CanineModelTest::test_torch_export <- tests/test_modeling_common.py 
tests/models/lfm2_vl/test_modeling_lfm2_vl.py::Lfm2VlModelTest::test_torch_export <- tests/test_modeling_common.py 
[gw35] [ 44%] PASSED tests/models/deformable_detr/test_modeling_deformable_detr.py::DeformableDetrModelTest::test_torch_export <- tests/test_modeling_common.py 
tests/models/deit/test_modeling_deit.py::DeiTModelTest::test_torch_export <- tests/test_modeling_common.py 
[gw27] [ 45%] PASSED tests/models/jetmoe/test_modeling_jetmoe.py::JetMoeModelTest::test_torch_export <- tests/test_modeling_common.py 
tests/models/layoutlm/test_modeling_layoutlm.py::LayoutLMModelTest::test_torch_export <- tests/test_modeling_common.py 
[gw36] [ 45%] PASSED tests/models/moonshine/test_modeling_moonshine.py::MoonshineModelTest::test_torch_export <- tests/test_modeling_common.py 
tests/models/moshi/test_modeling_moshi.py::MoshiDecoderTest::test_torch_export <- tests/test_modeling_common.py 
[gw61] [ 45%] PASSED tests/models/conditional_detr/test_modeling_conditional_detr.py::ConditionalDetrModelTest::test_torch_export <- tests/test_modeling_common.py 
tests/models/fastspeech2_conformer/test_modeling_fastspeech2_conformer.py::FastSpeech2ConformerModelTest::test_torch_export <- tests/test_modeling_common.py 
[gw28] [ 45%] PASSED tests/models/m2m_100/test_modeling_m2m_100.py::M2M100ModelTest::test_torch_export <- tests/test_modeling_common.py 
tests/models/mvp/test_modeling_mvp.py::MvpModelTest::test_torch_export <- tests/test_modeling_common.py 
[gw33] [ 45%] PASSED tests/models/musicgen/test_modeling_musicgen.py::MusicgenDecoderTest::test_torch_export <- tests/test_modeling_common.py 
tests/models/oneformer/test_modeling_oneformer.py::OneFormerModelTest::test_torch_export <- tests/test_modeling_common.py 
[gw19] [ 46%] PASSED tests/models/pegasus_x/test_modeling_pegasus_x.py::PegasusXStandaloneDecoderModelTest::test_torch_export <- tests/test_modeling_common.py 
tests/models/prompt_depth_anything/test_modeling_prompt_depth_anything.py::PromptDepthAnythingModelTest::test_torch_export <- tests/test_modeling_common.py 
[gw2] [ 46%] PASSED tests/models/flaubert/test_modeling_flaubert.py::FlaubertModelTest::test_torch_export <- tests/test_modeling_common.py 
[gw26] [ 46%] PASSED tests/models/informer/test_modeling_informer.py::InformerModelTest::test_torch_export <- tests/test_modeling_common.py 
tests/models/mgp_str/test_modeling_mgp_str.py::MgpstrModelTest::test_torch_export <- tests/test_modeling_common.py 
tests/models/mm_grounding_dino/test_modeling_mm_grounding_dino.py::MMGroundingDinoModelTest::test_torch_export <- tests/test_modeling_common.py 
[gw56] [ 46%] PASSED tests/models/kosmos2_5/test_modeling_kosmos2_5.py::Kosmos2_5ModelTest::test_torch_export <- tests/test_modeling_common.py 
tests/models/nemotron/test_modeling_nemotron.py::NemotronModelTest::test_torch_export <- tests/test_modeling_common.py 
[gw38] [ 46%] PASSED tests/models/mvp/test_modeling_mvp.py::MvpStandaloneDecoderModelTest::test_torch_export <- tests/test_modeling_common.py 
tests/models/perception_lm/test_modeling_perception_lm.py::PerceptionLMForConditionalGenerationModelTest::test_torch_export <- tests/test_modeling_common.py 
[gw16] [ 47%] PASSED tests/models/mbart/test_modeling_mbart.py::MBartStandaloneDecoderModelTest::test_torch_export <- tests/test_modeling_common.py 
tests/models/phi/test_modeling_phi.py::PhiModelTest::test_torch_export <- tests/test_modeling_common.py 
[gw51] [ 47%] PASSED tests/models/instructblipvideo/test_modeling_instructblipvideo.py::InstructBlipVideoForConditionalGenerationDecoderOnlyTest::test_torch_export <- tests/test_modeling_common.py 
tests/models/mllama/test_modeling_mllama.py::MllamaForConditionalGenerationModelTest::test_torch_export <- tests/test_modeling_common.py 
[gw10] [ 47%] PASSED tests/models/maskformer/test_modeling_maskformer_swin.py::MaskFormerSwinModelTest::test_torch_export <- tests/test_modeling_common.py 
tests/models/nystromformer/test_modeling_nystromformer.py::NystromformerModelTest::test_torch_export <- tests/test_modeling_common.py 
[gw42] [ 47%] PASSED tests/models/marian/test_modeling_marian.py::MarianStandaloneDecoderModelTest::test_torch_export <- tests/test_modeling_common.py 
tests/models/phi4_multimodal/test_modeling_phi4_multimodal.py::Phi4MultimodalModelTest::test_torch_export <- tests/test_modeling_common.py 
[gw0] [ 48%] PASSED tests/models/gemma3/test_modeling_gemma3.py::Gemma3Vision2TextModelTest::test_torch_export <- tests/test_modeling_common.py 
tests/models/luke/test_modeling_luke.py::LukeModelTest::test_torch_export <- tests/test_modeling_common.py 
[gw47] [ 48%] PASSED tests/models/cvt/test_modeling_cvt.py::CvtModelTest::test_torch_export <- tests/test_modeling_common.py 
tests/models/cwm/test_modeling_cwm.py::CwmModelTest::test_torch_export <- tests/test_modeling_common.py 
[gw9] [ 48%] PASSED tests/models/modernbert_decoder/test_modeling_modernbert_decoder.py::ModernBertDecoderModelTest::test_torch_export <- tests/test_modeling_common.py 
tests/models/owlv2/test_modeling_owlv2.py::Owlv2VisionModelTest::test_torch_export <- tests/test_modeling_common.py 
[gw58] [ 48%] PASSED tests/models/omdet_turbo/test_modeling_omdet_turbo.py::OmDetTurboModelTest::test_torch_export <- tests/test_modeling_common.py 
tests/models/pix2struct/test_modeling_pix2struct.py::Pix2StructModelTest::test_torch_export <- tests/test_modeling_common.py 
[gw46] [ 48%] PASSED tests/models/markuplm/test_modeling_markuplm.py::MarkupLMModelTest::test_torch_export <- tests/test_modeling_common.py 
tests/models/olmo3/test_modeling_olmo3.py::Olmo3ModelTest::test_torch_export <- tests/test_modeling_common.py 
[gw40] [ 49%] PASSED tests/models/pegasus/test_modeling_pegasus.py::PegasusStandaloneDecoderModelTest::test_torch_export <- tests/test_modeling_common.py 
[gw17] [ 49%] PASSED tests/models/owlv2/test_modeling_owlv2.py::Owlv2TextModelTest::test_torch_export <- tests/test_modeling_common.py 
tests/models/owlv2/test_modeling_owlv2.py::Owlv2ModelTest::test_torch_export <- tests/test_modeling_common.py 
tests/models/pop2piano/test_modeling_pop2piano.py::Pop2PianoModelTest::test_torch_export <- tests/test_modeling_common.py 
[gw42] [ 49%] PASSED tests/models/phi4_multimodal/test_modeling_phi4_multimodal.py::Phi4MultimodalModelTest::test_torch_export <- tests/test_modeling_common.py 
tests/models/reformer/test_modeling_reformer.py::ReformerLocalAttnModelTest::test_torch_export <- tests/test_modeling_common.py 
[gw61] [ 49%] PASSED tests/models/fastspeech2_conformer/test_modeling_fastspeech2_conformer.py::FastSpeech2ConformerModelTest::test_torch_export <- tests/test_modeling_common.py 
tests/models/qwen2_5_vl/test_modeling_qwen2_5_vl.py::Qwen2_5_VLModelTest::test_torch_export <- tests/test_modeling_common.py 
[gw51] [ 49%] FAILED tests/models/mllama/test_modeling_mllama.py::MllamaForConditionalGenerationModelTest::test_torch_export <- tests/test_modeling_common.py 
tests/models/qwen3_vl_moe/test_modeling_qwen3_vl_moe.py::Qwen3VLMoeModelTest::test_torch_export <- tests/test_modeling_common.py 
[gw9] [ 50%] PASSED tests/models/owlv2/test_modeling_owlv2.py::Owlv2VisionModelTest::test_torch_export <- tests/test_modeling_common.py 
tests/models/rembert/test_modeling_rembert.py::RemBertModelTest::test_torch_export <- tests/test_modeling_common.py 
[gw55] [ 50%] PASSED tests/models/janus/test_modeling_janus.py::JanusVQModelTest::test_torch_export <- tests/test_modeling_common.py 
tests/models/patchtst/test_modeling_patchtst.py::PatchTSTModelTest::test_torch_export <- tests/test_modeling_common.py 
[gw25] [ 50%] PASSED tests/models/parakeet/test_modeling_parakeet.py::ParakeetEncoderModelTest::test_torch_export <- tests/test_modeling_common.py 
tests/models/poolformer/test_modeling_poolformer.py::PoolFormerModelTest::test_torch_export <- tests/test_modeling_common.py 
[gw45] [ 50%] PASSED tests/models/efficientloftr/test_modeling_efficientloftr.py::EfficientLoFTRModelTest::test_torch_export <- tests/test_modeling_common.py 
tests/models/mpnet/test_modeling_mpnet.py::MPNetModelTest::test_torch_export <- tests/test_modeling_common.py 
[gw2] [ 50%] PASSED tests/models/mgp_str/test_modeling_mgp_str.py::MgpstrModelTest::test_torch_export <- tests/test_modeling_common.py 
tests/models/qwen3/test_modeling_qwen3.py::Qwen3ModelTest::test_torch_export <- tests/test_modeling_common.py 
[gw4] [ 51%] PASSED tests/models/opt/test_modeling_opt.py::OPTModelTest::test_torch_export <- tests/test_modeling_common.py 
tests/models/phimoe/test_modeling_phimoe.py::PhimoeModelTest::test_torch_export <- tests/test_modeling_common.py 
[gw39] [ 51%] PASSED tests/models/longt5/test_modeling_longt5.py::LongT5ModelTest::test_torch_export <- tests/test_modeling_common.py 
tests/models/paligemma/test_modeling_paligemma.py::PaliGemmaForConditionalGenerationModelTest::test_torch_export <- tests/test_modeling_common.py 
[gw18] [ 51%] FAILED tests/models/clvp/test_modeling_clvp.py::ClvpModelForConditionalGenerationTest::test_torch_export <- tests/test_modeling_common.py 
tests/models/flava/test_modeling_flava.py::FlavaMultimodalModelTest::test_torch_export <- tests/test_modeling_common.py 
[gw52] [ 51%] PASSED tests/models/layoutlmv3/test_modeling_layoutlmv3.py::LayoutLMv3ModelTest::test_torch_export <- tests/test_modeling_common.py 
tests/models/mpt/test_modeling_mpt.py::MptModelTest::test_torch_export <- tests/test_modeling_common.py 
[gw36] [ 51%] PASSED tests/models/moshi/test_modeling_moshi.py::MoshiDecoderTest::test_torch_export <- tests/test_modeling_common.py 
tests/models/qwen2_5_omni/test_modeling_qwen2_5_omni.py::Qwen2_5OmniThinkerForConditionalGenerationModelTest::test_torch_export <- tests/test_modeling_common.py 
[gw24] [ 52%] PASSED tests/models/idefics/test_modeling_idefics.py::IdeficsModelTest::test_torch_export <- tests/test_modeling_common.py 
tests/models/ovis2/test_modeling_ovis2.py::Ovis2ModelTest::test_torch_export <- tests/test_modeling_common.py 
[gw19] [ 52%] PASSED tests/models/prompt_depth_anything/test_modeling_prompt_depth_anything.py::PromptDepthAnythingModelTest::test_torch_export <- tests/test_modeling_common.py 
tests/models/qwen2_vl/test_modeling_qwen2_vl.py::Qwen2VLModelTest::test_torch_export <- tests/test_modeling_common.py 
[gw33] [ 52%] PASSED tests/models/oneformer/test_modeling_oneformer.py::OneFormerModelTest::test_torch_export <- tests/test_modeling_common.py 
tests/models/qwen2_moe/test_modeling_qwen2_moe.py::Qwen2MoeModelTest::test_torch_export <- tests/test_modeling_common.py 
[gw35] [ 52%] PASSED tests/models/deit/test_modeling_deit.py::DeiTModelTest::test_torch_export <- tests/test_modeling_common.py 
tests/models/pvt_v2/test_modeling_pvt_v2.py::PvtV2ModelTest::test_torch_export <- tests/test_modeling_common.py 
[gw5] [ 53%] PASSED tests/models/lxmert/test_modeling_lxmert.py::LxmertModelTest::test_torch_export <- tests/test_modeling_common.py 
tests/models/owlv2/test_modeling_owlv2.py::Owlv2ForObjectDetectionTest::test_torch_export <- tests/test_modeling_common.py 
[gw54] [ 53%] PASSED tests/models/mimi/test_modeling_mimi.py::MimiModelTest::test_torch_export <- tests/test_modeling_common.py 
tests/models/olmo2/test_modeling_olmo2.py::Olmo2ModelTest::test_torch_export <- tests/test_modeling_common.py 
[gw8] [ 53%] PASSED tests/models/owlvit/test_modeling_owlvit.py::OwlViTModelTest::test_torch_export <- tests/test_modeling_common.py 
tests/models/pegasus_x/test_modeling_pegasus_x.py::PegasusXModelTest::test_torch_export <- tests/test_modeling_common.py 
[gw1] [ 53%] PASSED tests/models/maskformer/test_modeling_maskformer.py::MaskFormerModelTest::test_torch_export <- tests/test_modeling_common.py 
tests/models/mobilebert/test_modeling_mobilebert.py::MobileBertModelTest::test_torch_export <- tests/test_modeling_common.py 
[gw18] [ 53%] PASSED tests/models/flava/test_modeling_flava.py::FlavaMultimodalModelTest::test_torch_export <- tests/test_modeling_common.py 
tests/models/seamless_m4t/test_modeling_seamless_m4t.py::SeamlessM4TModelWithSpeechInputTest::test_torch_export <- tests/test_modeling_common.py 
[gw41] [ 54%] PASSED tests/models/moshi/test_modeling_moshi.py::MoshiTest::test_torch_export <- tests/test_modeling_common.py 
tests/models/plbart/test_modeling_plbart.py::PLBartModelTest::test_torch_export <- tests/test_modeling_common.py 
[gw43] [ 54%] PASSED tests/models/mra/test_modeling_mra.py::MraModelTest::test_torch_export <- tests/test_modeling_common.py 
tests/models/patchtsmixer/test_modeling_patchtsmixer.py::PatchTSMixerModelTest::test_torch_export <- tests/test_modeling_common.py 
[gw63] [ 54%] PASSED tests/models/paligemma2/test_modeling_paligemma2.py::PaliGemma2ForConditionalGenerationModelTest::test_torch_export <- tests/test_modeling_common.py 
tests/models/pixtral/test_modeling_pixtral.py::PixtralVisionModelModelTest::test_torch_export <- tests/test_modeling_common.py 
[gw51] [ 54%] PASSED tests/models/qwen3_vl_moe/test_modeling_qwen3_vl_moe.py::Qwen3VLMoeModelTest::test_torch_export <- tests/test_modeling_common.py 
tests/models/rt_detr_v2/test_modeling_rt_detr_v2.py::RTDetrV2ModelTest::test_torch_export <- tests/test_modeling_common.py 
[gw29] [ 54%] PASSED tests/models/bridgetower/test_modeling_bridgetower.py::BridgeTowerModelTest::test_torch_export <- tests/test_modeling_common.py 
tests/models/granitemoeshared/test_modeling_granitemoeshared.py::GraniteMoeSharedModelTest::test_torch_export <- tests/test_modeling_common.py 
[gw63] [ 55%] PASSED tests/models/pixtral/test_modeling_pixtral.py::PixtralVisionModelModelTest::test_torch_export <- tests/test_modeling_common.py 
tests/models/siglip2/test_modeling_siglip2.py::Siglip2TextModelTest::test_torch_export <- tests/test_modeling_common.py 
[gw53] [ 55%] PASSED tests/models/mamba/test_modeling_mamba.py::MambaModelTest::test_torch_export <- tests/test_modeling_common.py 
tests/models/perceiver/test_modeling_perceiver.py::PerceiverModelTest::test_torch_export <- tests/test_modeling_common.py 
[gw40] [ 55%] PASSED tests/models/pop2piano/test_modeling_pop2piano.py::Pop2PianoModelTest::test_torch_export <- tests/test_modeling_common.py 
[gw61] [ 55%] PASSED tests/models/qwen2_5_vl/test_modeling_qwen2_5_vl.py::Qwen2_5_VLModelTest::test_torch_export <- tests/test_modeling_common.py 
tests/models/rt_detr/test_modeling_rt_detr.py::RTDetrModelTest::test_torch_export <- tests/test_modeling_common.py 
[gw57] [ 55%] PASSED tests/models/owlvit/test_modeling_owlvit.py::OwlViTTextModelTest::test_torch_export <- tests/test_modeling_common.py 
tests/models/roc_bert/test_modeling_roc_bert.py::RoCBertModelTest::test_torch_export <- tests/test_modeling_common.py 
tests/models/prophetnet/test_modeling_prophetnet.py::ProphetNetStandaloneDecoderModelTest::test_torch_export <- tests/test_modeling_common.py 
[gw47] [ 56%] PASSED tests/models/cwm/test_modeling_cwm.py::CwmModelTest::test_torch_export <- tests/test_modeling_common.py 
tests/models/regnet/test_modeling_regnet.py::RegNetModelTest::test_torch_export <- tests/test_modeling_common.py 
[gw36] [ 56%] PASSED tests/models/qwen2_5_omni/test_modeling_qwen2_5_omni.py::Qwen2_5OmniThinkerForConditionalGenerationModelTest::test_torch_export <- tests/test_modeling_common.py 
tests/models/seamless_m4t_v2/test_modeling_seamless_m4t_v2.py::SeamlessM4Tv2ModelWithSpeechInputTest::test_torch_export <- tests/test_modeling_common.py 
[gw31] [ 56%] PASSED tests/models/megatron_bert/test_modeling_megatron_bert.py::MegatronBertModelTest::test_torch_export <- tests/test_modeling_common.py 
tests/models/olmo/test_modeling_olmo.py::OlmoModelTest::test_torch_export <- tests/test_modeling_common.py 
[gw19] [ 56%] PASSED tests/models/qwen2_vl/test_modeling_qwen2_vl.py::Qwen2VLModelTest::test_torch_export <- tests/test_modeling_common.py 
tests/models/seed_oss/test_modeling_seed_oss.py::SeedOssModelTest::test_torch_export <- tests/test_modeling_common.py 
[gw6] [ 57%] PASSED tests/models/granitemoehybrid/test_modeling_granitemoehybrid.py::GraniteMoeHybridModelTest::test_torch_export <- tests/test_modeling_common.py 
[gw58] [ 57%] PASSED tests/models/pix2struct/test_modeling_pix2struct.py::Pix2StructModelTest::test_torch_export <- tests/test_modeling_common.py 
tests/models/lilt/test_modeling_lilt.py::LiltModelTest::test_torch_export <- tests/test_modeling_common.py 
tests/models/resnet/test_modeling_resnet.py::ResNetModelTest::test_torch_export <- tests/test_modeling_common.py 
[gw14] [ 57%] PASSED tests/models/glpn/test_modeling_glpn.py::GLPNModelTest::test_torch_export <- tests/test_modeling_common.py 
tests/models/longt5/test_modeling_longt5.py::LongT5TGlobalModelTest::test_torch_export <- tests/test_modeling_common.py 
[gw46] [ 57%] PASSED tests/models/olmo3/test_modeling_olmo3.py::Olmo3ModelTest::test_torch_export <- tests/test_modeling_common.py 
tests/models/roberta/test_modeling_roberta.py::RobertaModelTest::test_torch_export <- tests/test_modeling_common.py 
[gw16] [ 57%] PASSED tests/models/phi/test_modeling_phi.py::PhiModelTest::test_torch_export <- tests/test_modeling_common.py 
tests/models/qwen3_vl/test_modeling_qwen3_vl.py::Qwen3VLModelTest::test_torch_export <- tests/test_modeling_common.py 
[gw15] [ 58%] PASSED tests/models/gemma3n/test_modeling_gemma3n.py::Gemma3nTextModelTest::test_torch_export <- tests/test_modeling_common.py 
tests/models/mlcd/test_modeling_mlcd.py::MLCDVisionModelTest::test_torch_export <- tests/test_modeling_common.py 
[gw59] [ 58%] PASSED tests/models/mistral/test_modeling_mistral.py::MistralModelTest::test_torch_export <- tests/test_modeling_common.py 
tests/models/prophetnet/test_modeling_prophetnet.py::ProphetNetModelTest::test_torch_export <- tests/test_modeling_common.py 
[gw63] [ 58%] PASSED tests/models/siglip2/test_modeling_siglip2.py::Siglip2TextModelTest::test_torch_export <- tests/test_modeling_common.py 
tests/models/smollm3/test_modeling_smollm3.py::SmolLM3ModelTest::test_torch_export <- tests/test_modeling_common.py 
[gw30] [ 58%] PASSED tests/models/hunyuan_v1_moe/test_modeling_hunyuan_v1_moe.py::HunYuanMoEV1ModelTest::test_torch_export <- tests/test_modeling_common.py 
tests/models/openai/test_modeling_openai.py::OpenAIGPTModelTest::test_torch_export <- tests/test_modeling_common.py 
[gw37] [ 58%] PASSED tests/models/mobilenet_v1/test_modeling_mobilenet_v1.py::MobileNetV1ModelTest::test_torch_export <- tests/test_modeling_common.py 
tests/models/prophetnet/test_modeling_prophetnet.py::ProphetNetStandaloneEncoderModelTest::test_torch_export <- tests/test_modeling_common.py 
[gw62] [ 59%] PASSED tests/models/dia/test_modeling_dia.py::DiaModelTest::test_torch_export <- tests/test_modeling_common.py 
[gw11] [ 59%] PASSED tests/models/musicgen/test_modeling_musicgen.py::MusicgenTest::test_torch_export <- tests/test_modeling_common.py 
tests/models/persimmon/test_modeling_persimmon.py::PersimmonModelTest::test_torch_export <- tests/test_modeling_common.py 
tests/models/parakeet/test_modeling_parakeet.py::ParakeetForCTCModelTest::test_torch_export <- tests/test_modeling_common.py 
[gw23] [ 59%] PASSED tests/models/mbart/test_modeling_mbart.py::MBartModelTest::test_torch_export <- tests/test_modeling_common.py 
tests/models/musicgen_melody/test_modeling_musicgen_melody.py::MusicgenMelodyDecoderTest::test_torch_export <- tests/test_modeling_common.py 
[gw25] [ 59%] PASSED tests/models/poolformer/test_modeling_poolformer.py::PoolFormerModelTest::test_torch_export <- tests/test_modeling_common.py 
tests/models/sam/test_modeling_sam.py::SamModelTest::test_torch_export <- tests/test_modeling_common.py 
[gw34] [ 59%] PASSED tests/models/focalnet/test_modeling_focalnet.py::FocalNetModelTest::test_torch_export <- tests/test_modeling_common.py 
tests/models/plbart/test_modeling_plbart.py::PLBartStandaloneDecoderModelTest::test_torch_export <- tests/test_modeling_common.py 
[gw60] [ 60%] PASSED tests/models/ministral/test_modeling_ministral.py::MinistralModelTest::test_torch_export <- tests/test_modeling_common.py 
tests/models/phi3/test_modeling_phi3.py::Phi3ModelTest::test_torch_export <- tests/test_modeling_common.py 
[gw10] [ 60%] PASSED tests/models/nystromformer/test_modeling_nystromformer.py::NystromformerModelTest::test_torch_export <- tests/test_modeling_common.py 
tests/models/recurrent_gemma/test_modeling_recurrent_gemma.py::RecurrentGemmaModelTest::test_torch_export <- tests/test_modeling_common.py 
[gw54] [ 60%] PASSED tests/models/olmo2/test_modeling_olmo2.py::Olmo2ModelTest::test_torch_export <- tests/test_modeling_common.py 
tests/models/sew_d/test_modeling_sew_d.py::SEWDModelTest::test_torch_export <- tests/test_modeling_common.py 
[gw15] [ 60%] PASSED tests/models/mlcd/test_modeling_mlcd.py::MLCDVisionModelTest::test_torch_export <- tests/test_modeling_common.py 
tests/models/superpoint/test_modeling_superpoint.py::SuperPointModelTest::test_torch_export <- tests/test_modeling_common.py 
[gw37] [ 61%] PASSED tests/models/prophetnet/test_modeling_prophetnet.py::ProphetNetStandaloneEncoderModelTest::test_torch_export <- tests/test_modeling_common.py 
tests/models/swinv2/test_modeling_swinv2.py::Swinv2ModelTest::test_torch_export <- tests/test_modeling_common.py 
[gw3] [ 61%] PASSED tests/models/big_bird/test_modeling_big_bird.py::BigBirdModelTest::test_torch_export <- tests/test_modeling_common.py 
tests/models/bigbird_pegasus/test_modeling_bigbird_pegasus.py::BigBirdPegasusModelTest::test_torch_export <- tests/test_modeling_common.py 
[gw17] [ 61%] PASSED tests/models/owlv2/test_modeling_owlv2.py::Owlv2ModelTest::test_torch_export <- tests/test_modeling_common.py 
tests/models/roberta_prelayernorm/test_modeling_roberta_prelayernorm.py::RobertaPreLayerNormModelTest::test_torch_export <- tests/test_modeling_common.py 
[gw56] [ 61%] PASSED tests/models/nemotron/test_modeling_nemotron.py::NemotronModelTest::test_torch_export <- tests/test_modeling_common.py 
tests/models/qwen3_next/test_modeling_qwen3_next.py::Qwen3NextModelTest::test_torch_export <- tests/test_modeling_common.py 
[gw42] [ 61%] PASSED tests/models/reformer/test_modeling_reformer.py::ReformerLocalAttnModelTest::test_torch_export <- tests/test_modeling_common.py 
tests/models/roformer/test_modeling_roformer.py::RoFormerModelTest::test_torch_export <- tests/test_modeling_common.py 
[gw44] [ 62%] PASSED tests/models/d_fine/test_modeling_d_fine.py::DFineModelTest::test_torch_export <- tests/test_modeling_common.py 
tests/models/dab_detr/test_modeling_dab_detr.py::DabDetrModelTest::test_torch_export <- tests/test_modeling_common.py 
[gw16] [ 62%] PASSED tests/models/qwen3_vl/test_modeling_qwen3_vl.py::Qwen3VLModelTest::test_torch_export <- tests/test_modeling_common.py 
tests/models/superglue/test_modeling_superglue.py::SuperGlueModelTest::test_torch_export <- tests/test_modeling_common.py 
[gw15] [ 62%] PASSED tests/models/superpoint/test_modeling_superpoint.py::SuperPointModelTest::test_torch_export <- tests/test_modeling_common.py 
tests/models/textnet/test_modeling_textnet.py::TextNetModelTest::test_torch_export <- tests/test_modeling_common.py 
[gw52] [ 62%] PASSED tests/models/mpt/test_modeling_mpt.py::MptModelTest::test_torch_export <- tests/test_modeling_common.py 
tests/models/seamless_m4t/test_modeling_seamless_m4t.py::SeamlessM4TModelWithTextInputTest::test_torch_export <- tests/test_modeling_common.py 
[gw38] [ 62%] PASSED tests/models/perception_lm/test_modeling_perception_lm.py::PerceptionLMForConditionalGenerationModelTest::test_torch_export <- tests/test_modeling_common.py 
tests/models/qwen3_omni_moe/test_modeling_qwen3_omni_moe.py::Qwen2_5OmniThinkerForConditionalGenerationModelTest::test_torch_export <- tests/test_modeling_common.py 
[gw31] [ 63%] PASSED tests/models/olmo/test_modeling_olmo.py::OlmoModelTest::test_torch_export <- tests/test_modeling_common.py 
tests/models/speecht5/test_modeling_speecht5.py::SpeechT5ForSpeechToSpeechTest::test_torch_export <- tests/test_modeling_common.py 
[gw55] [ 63%] PASSED tests/models/patchtst/test_modeling_patchtst.py::PatchTSTModelTest::test_torch_export <- tests/test_modeling_common.py 
tests/models/sam/test_modeling_sam.py::SamVisionModelTest::test_torch_export <- tests/test_modeling_common.py 
[gw21] [ 63%] PASSED tests/models/mt5/test_modeling_mt5.py::MT5ModelTest::test_torch_export <- tests/test_modeling_common.py 
tests/models/musicgen_melody/test_modeling_musicgen_melody.py::MusicgenMelodyTest::test_torch_export <- tests/test_modeling_common.py 
[gw23] [ 63%] PASSED tests/models/musicgen_melody/test_modeling_musicgen_melody.py::MusicgenMelodyDecoderTest::test_torch_export <- tests/test_modeling_common.py 
tests/models/t5/test_modeling_t5.py::T5ModelTest::test_torch_export <- tests/test_modeling_common.py 
[gw57] [ 63%] PASSED tests/models/prophetnet/test_modeling_prophetnet.py::ProphetNetStandaloneDecoderModelTest::test_torch_export <- tests/test_modeling_common.py 
tests/models/speecht5/test_modeling_speecht5.py::SpeechT5ModelTest::test_torch_export <- tests/test_modeling_common.py 
[gw24] [ 64%] PASSED tests/models/ovis2/test_modeling_ovis2.py::Ovis2ModelTest::test_torch_export <- tests/test_modeling_common.py 
tests/models/seamless_m4t_v2/test_modeling_seamless_m4t_v2.py::SeamlessM4Tv2ModelWithTextInputTest::test_torch_export <- tests/test_modeling_common.py 
[gw43] [ 64%] PASSED tests/models/patchtsmixer/test_modeling_patchtsmixer.py::PatchTSMixerModelTest::test_torch_export <- tests/test_modeling_common.py 
tests/models/siglip2/test_modeling_siglip2.py::Siglip2VisionModelTest::test_torch_export <- tests/test_modeling_common.py 
[gw34] [ 64%] PASSED tests/models/plbart/test_modeling_plbart.py::PLBartStandaloneDecoderModelTest::test_torch_export <- tests/test_modeling_common.py 
tests/models/t5gemma/test_modeling_t5gemma.py::T5GemmaModelTest::test_torch_export <- tests/test_modeling_common.py 
[gw45] [ 64%] PASSED tests/models/mpnet/test_modeling_mpnet.py::MPNetModelTest::test_torch_export <- tests/test_modeling_common.py 
tests/models/sam2/test_modeling_sam2.py::Sam2VisionModelTest::test_torch_export <- tests/test_modeling_common.py 
[gw47] [ 64%] PASSED tests/models/regnet/test_modeling_regnet.py::RegNetModelTest::test_torch_export <- tests/test_modeling_common.py 
tests/models/speecht5/test_modeling_speecht5.py::SpeechT5ForSpeechToTextTest::test_torch_export <- tests/test_modeling_common.py 
[gw11] [ 65%] PASSED tests/models/parakeet/test_modeling_parakeet.py::ParakeetForCTCModelTest::test_torch_export <- tests/test_modeling_common.py 
tests/models/switch_transformers/test_modeling_switch_transformers.py::SwitchTransformersEncoderOnlyModelTest::test_torch_export <- tests/test_modeling_common.py 
[gw55] [ 65%] PASSED tests/models/sam/test_modeling_sam.py::SamVisionModelTest::test_torch_export <- tests/test_modeling_common.py 
tests/models/unispeech/test_modeling_unispeech.py::UniSpeechRobustModelTest::test_torch_export <- tests/test_modeling_common.py 
[gw39] [ 65%] PASSED tests/models/paligemma/test_modeling_paligemma.py::PaliGemmaForConditionalGenerationModelTest::test_torch_export <- tests/test_modeling_common.py 
tests/models/sam_hq/test_modeling_sam_hq.py::SamHQModelTest::test_torch_export <- tests/test_modeling_common.py 
[gw50] [ 65%] PASSED tests/models/mask2former/test_modeling_mask2former.py::Mask2FormerModelTest::test_torch_export <- tests/test_modeling_common.py 
tests/models/mobilevit/test_modeling_mobilevit.py::MobileViTModelTest::test_torch_export <- tests/test_modeling_common.py 
[gw2] [ 66%] PASSED tests/models/qwen3/test_modeling_qwen3.py::Qwen3ModelTest::test_torch_export <- tests/test_modeling_common.py 
tests/models/sam2/test_modeling_sam2.py::Sam2ModelTest::test_torch_export <- tests/test_modeling_common.py 
[gw9] [ 66%] PASSED tests/models/rembert/test_modeling_rembert.py::RemBertModelTest::test_torch_export <- tests/test_modeling_common.py 
tests/models/rwkv/test_modeling_rwkv.py::RwkvModelTest::test_torch_export <- tests/test_modeling_common.py 
[gw27] [ 66%] PASSED tests/models/layoutlm/test_modeling_layoutlm.py::LayoutLMModelTest::test_torch_export <- tests/test_modeling_common.py 
tests/models/qwen2/test_modeling_qwen2.py::Qwen2ModelTest::test_torch_export <- tests/test_modeling_common.py 
[gw5] [ 66%] PASSED tests/models/owlv2/test_modeling_owlv2.py::Owlv2ForObjectDetectionTest::test_torch_export <- tests/test_modeling_common.py 
tests/models/sew/test_modeling_sew.py::SEWModelTest::test_torch_export <- tests/test_modeling_common.py 
[gw32] [ 66%] PASSED tests/models/mobilevitv2/test_modeling_mobilevitv2.py::MobileViTV2ModelTest::test_torch_export <- tests/test_modeling_common.py 
tests/models/pix2struct/test_modeling_pix2struct.py::Pix2StructVisionModelTest::test_torch_export <- tests/test_modeling_common.py 
[gw10] [ 67%] PASSED tests/models/recurrent_gemma/test_modeling_recurrent_gemma.py::RecurrentGemmaModelTest::test_torch_export <- tests/test_modeling_common.py 
tests/models/table_transformer/test_modeling_table_transformer.py::TableTransformerModelTest::test_torch_export <- tests/test_modeling_common.py 
[gw22] [ 67%] PASSED tests/models/lfm2_vl/test_modeling_lfm2_vl.py::Lfm2VlModelTest::test_torch_export <- tests/test_modeling_common.py 
tests/models/pvt/test_modeling_pvt.py::PvtModelTest::test_torch_export <- tests/test_modeling_common.py 
[gw11] [ 67%] PASSED tests/models/switch_transformers/test_modeling_switch_transformers.py::SwitchTransformersEncoderOnlyModelTest::test_torch_export <- tests/test_modeling_common.py 
tests/models/videomae/test_modeling_videomae.py::VideoMAEModelTest::test_torch_export <- tests/test_modeling_common.py 
[gw20] [ 67%] PASSED tests/models/mixtral/test_modeling_mixtral.py::MixtralModelTest::test_torch_export <- tests/test_modeling_common.py 
tests/models/owlvit/test_modeling_owlvit.py::OwlViTVisionModelTest::test_torch_export <- tests/test_modeling_common.py 
[gw8] [ 67%] PASSED tests/models/pegasus_x/test_modeling_pegasus_x.py::PegasusXModelTest::test_torch_export <- tests/test_modeling_common.py 
tests/models/siglip/test_modeling_siglip.py::SiglipVisionModelTest::test_torch_export <- tests/test_modeling_common.py 
[gw38] [ 68%] PASSED tests/models/qwen3_omni_moe/test_modeling_qwen3_omni_moe.py::Qwen2_5OmniThinkerForConditionalGenerationModelTest::test_torch_export <- tests/test_modeling_common.py 
tests/models/umt5/test_modeling_umt5.py::UMT5ModelTest::test_torch_export <- tests/test_modeling_common.py 
[gw58] [ 68%] PASSED tests/models/resnet/test_modeling_resnet.py::ResNetModelTest::test_torch_export <- tests/test_modeling_common.py 
tests/models/squeezebert/test_modeling_squeezebert.py::SqueezeBertModelTest::test_torch_export <- tests/test_modeling_common.py 
[gw30] [ 68%] PASSED tests/models/openai/test_modeling_openai.py::OpenAIGPTModelTest::test_torch_export <- tests/test_modeling_common.py 
tests/models/swin2sr/test_modeling_swin2sr.py::Swin2SRModelTest::test_torch_export <- tests/test_modeling_common.py 
[gw25] [ 68%] PASSED tests/models/sam/test_modeling_sam.py::SamModelTest::test_torch_export <- tests/test_modeling_common.py 
tests/models/t5/test_modeling_t5.py::T5EncoderOnlyModelTest::test_torch_export <- tests/test_modeling_common.py 
[gw28] [ 68%] PASSED tests/models/mvp/test_modeling_mvp.py::MvpModelTest::test_torch_export <- tests/test_modeling_common.py 
tests/models/qwen2_audio/test_modeling_qwen2_audio.py::Qwen2AudioForConditionalGenerationModelTest::test_torch_export <- tests/test_modeling_common.py 
[gw57] [ 69%] PASSED tests/models/speecht5/test_modeling_speecht5.py::SpeechT5ModelTest::test_torch_export <- tests/test_modeling_common.py 
tests/models/univnet/test_modeling_univnet.py::UnivNetModelTest::test_torch_export <- tests/test_modeling_common.py 
[gw62] [ 69%] PASSED tests/models/persimmon/test_modeling_persimmon.py::PersimmonModelTest::test_torch_export <- tests/test_modeling_common.py 
tests/models/switch_transformers/test_modeling_switch_transformers.py::SwitchTransformersModelTest::test_torch_export <- tests/test_modeling_common.py 
[gw15] [ 69%] PASSED tests/models/textnet/test_modeling_textnet.py::TextNetModelTest::test_torch_export <- tests/test_modeling_common.py 
tests/models/udop/test_modeling_udop.py::UdopModelTest::test_torch_export <- tests/test_modeling_common.py 
[gw19] [ 69%] PASSED tests/models/seed_oss/test_modeling_seed_oss.py::SeedOssModelTest::test_torch_export <- tests/test_modeling_common.py 
tests/models/speecht5/test_modeling_speecht5.py::SpeechT5HifiGanTest::test_torch_export <- tests/test_modeling_common.py 
[gw29] [ 70%] PASSED tests/models/granitemoeshared/test_modeling_granitemoeshared.py::GraniteMoeSharedModelTest::test_torch_export <- tests/test_modeling_common.py 
tests/models/siglip2/test_modeling_siglip2.py::Siglip2ForImageClassificationModelTest::test_torch_export <- tests/test_modeling_common.py 
[gw41] [ 70%] PASSED tests/models/plbart/test_modeling_plbart.py::PLBartModelTest::test_torch_export <- tests/test_modeling_common.py 
tests/models/siglip/test_modeling_siglip.py::SiglipForImageClassificationModelTest::test_torch_export <- tests/test_modeling_common.py 
[gw20] [ 70%] PASSED tests/models/owlvit/test_modeling_owlvit.py::OwlViTVisionModelTest::test_torch_export <- tests/test_modeling_common.py 
tests/models/vits/test_modeling_vits.py::VitsModelTest::test_torch_export <- tests/test_modeling_common.py 
[gw48] [ 70%] PASSED tests/models/minimax/test_modeling_minimax.py::MiniMaxModelTest::test_torch_export <- tests/test_modeling_common.py 
tests/models/owlvit/test_modeling_owlvit.py::OwlViTForObjectDetectionTest::test_torch_export <- tests/test_modeling_common.py 
[gw32] [ 70%] PASSED tests/models/pix2struct/test_modeling_pix2struct.py::Pix2StructVisionModelTest::test_torch_export <- tests/test_modeling_common.py 
tests/models/vitdet/test_modeling_vitdet.py::VitDetModelTest::test_torch_export <- tests/test_modeling_common.py 
[gw60] [ 71%] PASSED tests/models/phi3/test_modeling_phi3.py::Phi3ModelTest::test_torch_export <- tests/test_modeling_common.py 
tests/models/t5gemma/test_modeling_t5gemma.py::T5GemmaEncoderOnlyModelTest::test_torch_export <- tests/test_modeling_common.py 
[gw63] [ 71%] PASSED tests/models/smollm3/test_modeling_smollm3.py::SmolLM3ModelTest::test_torch_export <- tests/test_modeling_common.py 
tests/models/swin/test_modeling_swin.py::SwinModelTest::test_torch_export <- tests/test_modeling_common.py 
[gw49] [ 71%] PASSED tests/models/mobilenet_v2/test_modeling_mobilenet_v2.py::MobileNetV2ModelTest::test_torch_export <- tests/test_modeling_common.py 
tests/models/pegasus/test_modeling_pegasus.py::PegasusModelTest::test_torch_export <- tests/test_modeling_common.py 
[gw14] [ 71%] PASSED tests/models/longt5/test_modeling_longt5.py::LongT5TGlobalModelTest::test_torch_export <- tests/test_modeling_common.py 
[gw12] [ 71%] PASSED tests/models/levit/test_modeling_levit.py::LevitModelTest::test_torch_export <- tests/test_modeling_common.py 
tests/models/stablelm/test_modeling_stablelm.py::StableLmModelTest::test_torch_export <- tests/test_modeling_common.py 
tests/models/olmoe/test_modeling_olmoe.py::OlmoeModelTest::test_torch_export <- tests/test_modeling_common.py 
[gw8] [ 72%] PASSED tests/models/siglip/test_modeling_siglip.py::SiglipVisionModelTest::test_torch_export <- tests/test_modeling_common.py 
tests/models/vivit/test_modeling_vivit.py::VivitModelTest::test_torch_export <- tests/test_modeling_common.py 
[gw46] [ 72%] PASSED tests/models/roberta/test_modeling_roberta.py::RobertaModelTest::test_torch_export <- tests/test_modeling_common.py 
tests/models/starcoder2/test_modeling_starcoder2.py::Starcoder2ModelTest::test_torch_export <- tests/test_modeling_common.py 
[gw40] [ 72%] PASSED tests/models/roc_bert/test_modeling_roc_bert.py::RoCBertModelTest::test_torch_export <- tests/test_modeling_common.py 
tests/models/smolvlm/test_modeling_smolvlm.py::SmolVLMForConditionalGenerationModelTest::test_torch_export <- tests/test_modeling_common.py 
[gw59] [ 72%] PASSED tests/models/prophetnet/test_modeling_prophetnet.py::ProphetNetModelTest::test_torch_export <- tests/test_modeling_common.py 
tests/models/swiftformer/test_modeling_swiftformer.py::SwiftFormerModelTest::test_torch_export <- tests/test_modeling_common.py 
[gw25] [ 72%] PASSED tests/models/t5/test_modeling_t5.py::T5EncoderOnlyModelTest::test_torch_export <- tests/test_modeling_common.py 
tests/models/wav2vec2/test_modeling_wav2vec2.py::Wav2Vec2RobustModelTest::test_torch_export <- tests/test_modeling_common.py 
[gw41] [ 73%] PASSED tests/models/siglip/test_modeling_siglip.py::SiglipForImageClassificationModelTest::test_torch_export <- tests/test_modeling_common.py 
tests/models/x_clip/test_modeling_x_clip.py::XCLIPVisionModelTest::test_torch_export <- tests/test_modeling_common.py 
[gw54] [ 73%] PASSED tests/models/sew_d/test_modeling_sew_d.py::SEWDModelTest::test_torch_export <- tests/test_modeling_common.py 
tests/models/tapas/test_modeling_tapas.py::TapasModelTest::test_torch_export <- tests/test_modeling_common.py 
[gw19] [ 73%] PASSED tests/models/speecht5/test_modeling_speecht5.py::SpeechT5HifiGanTest::test_torch_export <- tests/test_modeling_common.py 
tests/models/whisper/test_modeling_whisper.py::WhisperEncoderModelTest::test_torch_export <- tests/test_modeling_common.py 
[gw47] [ 73%] PASSED tests/models/speecht5/test_modeling_speecht5.py::SpeechT5ForSpeechToTextTest::test_torch_export <- tests/test_modeling_common.py 
tests/models/video_llava/test_modeling_video_llava.py::VideoLlavaForConditionalGenerationModelTest::test_torch_export <- tests/test_modeling_common.py 
[gw32] [ 74%] PASSED tests/models/vitdet/test_modeling_vitdet.py::VitDetModelTest::test_torch_export <- tests/test_modeling_common.py 
tests/models/xcodec/test_modeling_xcodec.py::XcodecModelTest::test_torch_export <- tests/test_modeling_common.py 
[gw17] [ 74%] PASSED tests/models/roberta_prelayernorm/test_modeling_roberta_prelayernorm.py::RobertaPreLayerNormModelTest::test_torch_export <- tests/test_modeling_common.py 
tests/models/timesformer/test_modeling_timesformer.py::TimesformerModelTest::test_torch_export <- tests/test_modeling_common.py 
[gw4] [ 74%] PASSED tests/models/phimoe/test_modeling_phimoe.py::PhimoeModelTest::test_torch_export <- tests/test_modeling_common.py 
tests/models/sam_hq/test_modeling_sam_hq.py::SamHQVisionModelTest::test_torch_export <- tests/test_modeling_common.py 
[gw28] [ 74%] PASSED tests/models/qwen2_audio/test_modeling_qwen2_audio.py::Qwen2AudioForConditionalGenerationModelTest::test_torch_export <- tests/test_modeling_common.py 
tests/models/wav2vec2_bert/test_modeling_wav2vec2_bert.py::Wav2Vec2BertModelTest::test_torch_export <- tests/test_modeling_common.py 
[gw31] [ 74%] PASSED tests/models/speecht5/test_modeling_speecht5.py::SpeechT5ForSpeechToSpeechTest::test_torch_export <- tests/test_modeling_common.py 
[gw8] [ 75%] PASSED tests/models/vivit/test_modeling_vivit.py::VivitModelTest::test_torch_export <- tests/test_modeling_common.py 
tests/models/xmod/test_modeling_xmod.py::XmodModelTest::test_torch_export <- tests/test_modeling_common.py 
tests/models/umt5/test_modeling_umt5.py::UMT5EncoderOnlyModelTest::test_torch_export <- tests/test_modeling_common.py 
[gw19] [ 75%] PASSED tests/models/whisper/test_modeling_whisper.py::WhisperEncoderModelTest::test_torch_export <- tests/test_modeling_common.py 
[gw41] [ 75%] PASSED tests/models/x_clip/test_modeling_x_clip.py::XCLIPVisionModelTest::test_torch_export <- tests/test_modeling_common.py 
tests/models/zoedepth/test_modeling_zoedepth.py::ZoeDepthModelTest::test_torch_export <- tests/test_modeling_common.py 
[gw45] [ 75%] PASSED tests/models/sam2/test_modeling_sam2.py::Sam2VisionModelTest::test_torch_export <- tests/test_modeling_common.py 
[gw5] [ 75%] PASSED tests/models/sew/test_modeling_sew.py::SEWModelTest::test_torch_export <- tests/test_modeling_common.py 
tests/models/video_llama_3/test_modeling_video_llama_3.py::VideoLlama3ModelTest::test_torch_export <- tests/test_modeling_common.py 
tests/models/vit_msn/test_modeling_vit_msn.py::ViTMSNModelTest::test_torch_export <- tests/test_modeling_common.py 
[gw57] [ 76%] PASSED tests/models/univnet/test_modeling_univnet.py::UnivNetModelTest::test_torch_export <- tests/test_modeling_common.py 
tests/models/wav2vec2_conformer/test_modeling_wav2vec2_conformer.py::Wav2Vec2ConformerModelTest::test_torch_export <- tests/test_modeling_common.py 
[gw35] [ 76%] PASSED tests/models/pvt_v2/test_modeling_pvt_v2.py::PvtV2ModelTest::test_torch_export <- tests/test_modeling_common.py 
tests/models/seggpt/test_modeling_seggpt.py::SegGptModelTest::test_torch_export <- tests/test_modeling_common.py 
[gw45] [ 76%] PASSED tests/models/video_llama_3/test_modeling_video_llama_3.py::VideoLlama3ModelTest::test_torch_export <- tests/test_modeling_common.py 
[gw6] [ 76%] PASSED tests/models/lilt/test_modeling_lilt.py::LiltModelTest::test_torch_export <- tests/test_modeling_common.py 
tests/models/splinter/test_modeling_splinter.py::SplinterModelTest::test_torch_export <- tests/test_modeling_common.py 
[gw43] [ 76%] PASSED tests/models/siglip2/test_modeling_siglip2.py::Siglip2VisionModelTest::test_torch_export <- tests/test_modeling_common.py 
tests/models/vaultgemma/test_modeling_vaultgemma.py::VaultGemmaModelTest::test_torch_export <- tests/test_modeling_common.py 
[gw21] [ 77%] PASSED tests/models/musicgen_melody/test_modeling_musicgen_melody.py::MusicgenMelodyTest::test_torch_export <- tests/test_modeling_common.py 
tests/models/unispeech_sat/test_modeling_unispeech_sat.py::UniSpeechSatModelTest::test_torch_export <- tests/test_modeling_common.py 
[gw4] [ 77%] PASSED tests/models/sam_hq/test_modeling_sam_hq.py::SamHQVisionModelTest::test_torch_export <- tests/test_modeling_common.py 
[gw42] [ 77%] PASSED tests/models/roformer/test_modeling_roformer.py::RoFormerModelTest::test_torch_export <- tests/test_modeling_common.py 
tests/models/timm_wrapper/test_modeling_timm_wrapper.py::TimmWrapperModelTest::test_torch_export <- tests/test_modeling_common.py 
[gw8] [ 77%] PASSED tests/models/xmod/test_modeling_xmod.py::XmodModelTest::test_torch_export <- tests/test_modeling_common.py 
[gw58] [ 77%] PASSED tests/models/squeezebert/test_modeling_squeezebert.py::SqueezeBertModelTest::test_torch_export <- tests/test_modeling_common.py 
tests/models/voxtral/test_modeling_voxtral.py::VoxtralForConditionalGenerationModelTest::test_torch_export <- tests/test_modeling_common.py 
[gw0] [ 78%] PASSED tests/models/luke/test_modeling_luke.py::LukeModelTest::test_torch_export <- tests/test_modeling_common.py 
tests/models/reformer/test_modeling_reformer.py::ReformerLSHAttnModelTest::test_torch_export 
[gw5] [ 78%] PASSED tests/models/vit_msn/test_modeling_vit_msn.py::ViTMSNModelTest::test_torch_export <- tests/test_modeling_common.py 
[gw55] [ 78%] PASSED tests/models/unispeech/test_modeling_unispeech.py::UniSpeechRobustModelTest::test_torch_export <- tests/test_modeling_common.py 
tests/models/vilt/test_modeling_vilt.py::ViltModelTest::test_torch_export <- tests/test_modeling_common.py 
[gw60] [ 78%] PASSED tests/models/t5gemma/test_modeling_t5gemma.py::T5GemmaEncoderOnlyModelTest::test_torch_export <- tests/test_modeling_common.py 
tests/models/xglm/test_modeling_xglm.py::XGLMModelTest::test_torch_export <- tests/test_modeling_common.py 
[gw33] [ 79%] PASSED tests/models/qwen2_moe/test_modeling_qwen2_moe.py::Qwen2MoeModelTest::test_torch_export <- tests/test_modeling_common.py 
tests/models/segformer/test_modeling_segformer.py::SegformerModelTest::test_torch_export <- tests/test_modeling_common.py 
[gw14] [ 79%] PASSED tests/models/stablelm/test_modeling_stablelm.py::StableLmModelTest::test_torch_export <- tests/test_modeling_common.py 
tests/models/xlnet/test_modeling_xlnet.py::XLNetModelTest::test_torch_export <- tests/test_modeling_common.py 
[gw27] [ 79%] PASSED tests/models/qwen2/test_modeling_qwen2.py::Qwen2ModelTest::test_torch_export <- tests/test_modeling_common.py 
tests/models/vit_mae/test_modeling_vit_mae.py::ViTMAEModelTest::test_torch_export <- tests/test_modeling_common.py 
[gw31] [ 79%] PASSED tests/models/umt5/test_modeling_umt5.py::UMT5EncoderOnlyModelTest::test_torch_export <- tests/test_modeling_common.py 
[gw30] [ 79%] PASSED tests/models/swin2sr/test_modeling_swin2sr.py::Swin2SRModelTest::test_torch_export <- tests/test_modeling_common.py 
tests/models/wav2vec2/test_modeling_wav2vec2.py::Wav2Vec2ModelTest::test_torch_export <- tests/test_modeling_common.py 
[gw1] [ 80%] PASSED tests/models/mobilebert/test_modeling_mobilebert.py::MobileBertModelTest::test_torch_export <- tests/test_modeling_common.py 
tests/models/siglip/test_modeling_siglip.py::SiglipTextModelTest::test_torch_export <- tests/test_modeling_common.py 
[gw40] [ 80%] PASSED tests/models/smolvlm/test_modeling_smolvlm.py::SmolVLMForConditionalGenerationModelTest::test_torch_export <- tests/test_modeling_common.py 
[gw9] [ 80%] PASSED tests/models/rwkv/test_modeling_rwkv.py::RwkvModelTest::test_torch_export <- tests/test_modeling_common.py 
tests/models/yoso/test_modeling_yoso.py::YosoModelTest::test_torch_export <- tests/test_modeling_common.py 
tests/models/vit/test_modeling_vit.py::ViTModelTest::test_torch_export <- tests/test_modeling_common.py 
[gw46] [ 80%] PASSED tests/models/starcoder2/test_modeling_starcoder2.py::Starcoder2ModelTest::test_torch_export <- tests/test_modeling_common.py 
tests/models/yolos/test_modeling_yolos.py::YolosModelTest::test_torch_export <- tests/test_modeling_common.py 
[gw16] [ 80%] PASSED tests/models/superglue/test_modeling_superglue.py::SuperGlueModelTest::test_torch_export <- tests/test_modeling_common.py 
tests/models/tvp/test_modeling_tvp.py::TVPModelTest::test_torch_export <- tests/test_modeling_common.py 
[gw49] [ 81%] PASSED tests/models/pegasus/test_modeling_pegasus.py::PegasusModelTest::test_torch_export <- tests/test_modeling_common.py 
tests/models/xlm_roberta_xl/test_modeling_xlm_roberta_xl.py::XLMRobertaXLModelTest::test_torch_export <- tests/test_modeling_common.py 
[gw17] [ 81%] PASSED tests/models/timesformer/test_modeling_timesformer.py::TimesformerModelTest::test_torch_export <- tests/test_modeling_common.py 
[gw48] [ 81%] PASSED tests/models/owlvit/test_modeling_owlvit.py::OwlViTForObjectDetectionTest::test_torch_export <- tests/test_modeling_common.py 
[gw55] [ 81%] PASSED tests/models/vilt/test_modeling_vilt.py::ViltModelTest::test_torch_export <- tests/test_modeling_common.py 
tests/models/x_clip/test_modeling_x_clip.py::XCLIPModelTest::test_torch_export <- tests/test_modeling_common.py 
[gw12] [ 81%] PASSED tests/models/olmoe/test_modeling_olmoe.py::OlmoeModelTest::test_torch_export <- tests/test_modeling_common.py 
tests/models/xlstm/test_modeling_xlstm.py::xLSTMModelTest::test_torch_export <- tests/test_modeling_common.py 
[gw32] [ 82%] PASSED tests/models/xcodec/test_modeling_xcodec.py::XcodecModelTest::test_torch_export <- tests/test_modeling_common.py 
[gw43] [ 82%] PASSED tests/models/vaultgemma/test_modeling_vaultgemma.py::VaultGemmaModelTest::test_torch_export <- tests/test_modeling_common.py 
[gw29] [ 82%] PASSED tests/models/siglip2/test_modeling_siglip2.py::Siglip2ForImageClassificationModelTest::test_torch_export <- tests/test_modeling_common.py 
tests/models/whisper/test_modeling_whisper.py::WhisperStandaloneDecoderModelTest::test_torch_export <- tests/test_modeling_common.py 
[gw58] [ 82%] PASSED tests/models/voxtral/test_modeling_voxtral.py::VoxtralForConditionalGenerationModelTest::test_torch_export <- tests/test_modeling_common.py 
[gw41] [ 83%] PASSED tests/models/zoedepth/test_modeling_zoedepth.py::ZoeDepthModelTest::test_torch_export <- tests/test_modeling_common.py 
[gw1] [ 83%] PASSED tests/models/siglip/test_modeling_siglip.py::SiglipTextModelTest::test_torch_export <- tests/test_modeling_common.py 
[gw11] [ 83%] FAILED tests/models/videomae/test_modeling_videomae.py::VideoMAEModelTest::test_torch_export <- tests/test_modeling_common.py 
tests/models/vitpose_backbone/test_modeling_vitpose_backbone.py::VitPoseBackboneModelTest::test_torch_export <- tests/test_modeling_common.py 
[gw37] [ 83%] PASSED tests/models/swinv2/test_modeling_swinv2.py::Swinv2ModelTest::test_torch_export <- tests/test_modeling_common.py 
tests/models/time_series_transformer/test_modeling_time_series_transformer.py::TimeSeriesTransformerModelTest::test_torch_export <- tests/test_modeling_common.py 
[gw15] [ 83%] PASSED tests/models/udop/test_modeling_udop.py::UdopModelTest::test_torch_export <- tests/test_modeling_common.py 
tests/models/whisper/test_modeling_whisper.py::WhisperModelTest::test_torch_export <- tests/test_modeling_common.py 
[gw2] [ 84%] PASSED tests/models/sam2/test_modeling_sam2.py::Sam2ModelTest::test_torch_export <- tests/test_modeling_common.py 
tests/models/visual_bert/test_modeling_visual_bert.py::VisualBertModelTest::test_torch_export <- tests/test_modeling_common.py 
[gw60] [ 84%] PASSED tests/models/xglm/test_modeling_xglm.py::XGLMModelTest::test_torch_export <- tests/test_modeling_common.py 
[gw7] [ 84%] PASSED tests/models/grounding_dino/test_modeling_grounding_dino.py::GroundingDinoModelTest::test_torch_export <- tests/test_modeling_common.py 
tests/models/longt5/test_modeling_longt5.py::LongT5EncoderOnlyModelTest::test_torch_export <- tests/test_modeling_common.py 
[gw24] [ 84%] PASSED tests/models/seamless_m4t_v2/test_modeling_seamless_m4t_v2.py::SeamlessM4Tv2ModelWithTextInputTest::test_torch_export <- tests/test_modeling_common.py 
tests/models/upernet/test_modeling_upernet.py::UperNetModelTest::test_torch_export <- tests/test_modeling_common.py 
[gw35] [ 84%] PASSED tests/models/seggpt/test_modeling_seggpt.py::SegGptModelTest::test_torch_export <- tests/test_modeling_common.py 
[gw47] [ 85%] PASSED tests/models/video_llava/test_modeling_video_llava.py::VideoLlavaForConditionalGenerationModelTest::test_torch_export <- tests/test_modeling_common.py 
[gw46] [ 85%] PASSED tests/models/yolos/test_modeling_yolos.py::YolosModelTest::test_torch_export <- tests/test_modeling_common.py 
[gw6] [ 85%] PASSED tests/models/splinter/test_modeling_splinter.py::SplinterModelTest::test_torch_export <- tests/test_modeling_common.py 
[gw27] [ 85%] PASSED tests/models/vit_mae/test_modeling_vit_mae.py::ViTMAEModelTest::test_torch_export <- tests/test_modeling_common.py 
[gw42] [ 85%] PASSED tests/models/timm_wrapper/test_modeling_timm_wrapper.py::TimmWrapperModelTest::test_torch_export <- tests/test_modeling_common.py 
[gw9] [ 86%] PASSED tests/models/vit/test_modeling_vit.py::ViTModelTest::test_torch_export <- tests/test_modeling_common.py 
[gw11] [ 86%] PASSED tests/models/vitpose_backbone/test_modeling_vitpose_backbone.py::VitPoseBackboneModelTest::test_torch_export <- tests/test_modeling_common.py 
[gw62] [ 86%] PASSED tests/models/switch_transformers/test_modeling_switch_transformers.py::SwitchTransformersModelTest::test_torch_export <- tests/test_modeling_common.py 
tests/models/wavlm/test_modeling_wavlm.py::WavLMModelTest::test_torch_export <- tests/test_modeling_common.py 
[gw29] [ 86%] PASSED tests/models/whisper/test_modeling_whisper.py::WhisperStandaloneDecoderModelTest::test_torch_export <- tests/test_modeling_common.py 
[gw22] [ 87%] PASSED tests/models/pvt/test_modeling_pvt.py::PvtModelTest::test_torch_export <- tests/test_modeling_common.py 
tests/models/vitpose/test_modeling_vitpose.py::VitPoseModelTest::test_torch_export <- tests/test_modeling_common.py 
[gw59] [ 87%] PASSED tests/models/swiftformer/test_modeling_swiftformer.py::SwiftFormerModelTest::test_torch_export <- tests/test_modeling_common.py 
tests/models/zamba/test_modeling_zamba.py::ZambaModelTest::test_torch_export <- tests/test_modeling_common.py 
[gw10] [ 87%] PASSED tests/models/table_transformer/test_modeling_table_transformer.py::TableTransformerModelTest::test_torch_export <- tests/test_modeling_common.py 
tests/models/vitmatte/test_modeling_vitmatte.py::VitMatteModelTest::test_torch_export <- tests/test_modeling_common.py 
[gw52] [ 87%] PASSED tests/models/seamless_m4t/test_modeling_seamless_m4t.py::SeamlessM4TModelWithTextInputTest::test_torch_export <- tests/test_modeling_common.py 
tests/models/udop/test_modeling_udop.py::UdopEncoderOnlyModelTest::test_torch_export <- tests/test_modeling_common.py 
[gw23] [ 87%] PASSED tests/models/t5/test_modeling_t5.py::T5ModelTest::test_torch_export <- tests/test_modeling_common.py 
tests/models/unispeech_sat/test_modeling_unispeech_sat.py::UniSpeechSatRobustModelTest::test_torch_export <- tests/test_modeling_common.py 
[gw0] [ 88%] PASSED tests/models/reformer/test_modeling_reformer.py::ReformerLSHAttnModelTest::test_torch_export 
[gw7] [ 88%] PASSED tests/models/longt5/test_modeling_longt5.py::LongT5EncoderOnlyModelTest::test_torch_export <- tests/test_modeling_common.py 
[gw48] [ 88%] PASSED tests/models/x_clip/test_modeling_x_clip.py::XCLIPModelTest::test_torch_export <- tests/test_modeling_common.py 
[gw18] [ 88%] PASSED tests/models/seamless_m4t/test_modeling_seamless_m4t.py::SeamlessM4TModelWithSpeechInputTest::test_torch_export <- tests/test_modeling_common.py 
tests/models/siglip/test_modeling_siglip.py::SiglipModelTest::test_torch_export <- tests/test_modeling_common.py 
[gw61] [ 88%] PASSED tests/models/rt_detr/test_modeling_rt_detr.py::RTDetrModelTest::test_torch_export <- tests/test_modeling_common.py 
tests/models/speech_to_text/test_modeling_speech_to_text.py::Speech2TextModelTest::test_torch_export <- tests/test_modeling_common.py 
[gw63] [ 89%] PASSED tests/models/swin/test_modeling_swin.py::SwinModelTest::test_torch_export <- tests/test_modeling_common.py 
tests/models/xlm/test_modeling_xlm.py::XLMModelTest::test_torch_export <- tests/test_modeling_common.py 
[gw36] [ 89%] PASSED tests/models/seamless_m4t_v2/test_modeling_seamless_m4t_v2.py::SeamlessM4Tv2ModelWithSpeechInputTest::test_torch_export <- tests/test_modeling_common.py 
tests/models/speecht5/test_modeling_speecht5.py::SpeechT5ForTextToSpeechTest::test_torch_export <- tests/test_modeling_common.py 
[gw44] [ 89%] PASSED tests/models/dab_detr/test_modeling_dab_detr.py::DabDetrModelTest::test_torch_export <- tests/test_modeling_common.py 
tests/models/trocr/test_modeling_trocr.py::TrOCRStandaloneDecoderModelTest::test_torch_export <- tests/test_modeling_common.py 
[gw22] [ 89%] PASSED tests/models/vitpose/test_modeling_vitpose.py::VitPoseModelTest::test_torch_export <- tests/test_modeling_common.py 
[gw53] [ 89%] PASSED tests/models/perceiver/test_modeling_perceiver.py::PerceiverModelTest::test_torch_export <- tests/test_modeling_common.py 
tests/models/smolvlm/test_modeling_smolvlm.py::SmolVLMModelTest::test_torch_export <- tests/test_modeling_common.py 
[gw51] [ 90%] PASSED tests/models/rt_detr_v2/test_modeling_rt_detr_v2.py::RTDetrV2ModelTest::test_torch_export <- tests/test_modeling_common.py 
tests/models/siglip2/test_modeling_siglip2.py::Siglip2ModelTest::test_torch_export <- tests/test_modeling_common.py 
[gw52] [ 90%] PASSED tests/models/udop/test_modeling_udop.py::UdopEncoderOnlyModelTest::test_torch_export <- tests/test_modeling_common.py 
[gw16] [ 90%] PASSED tests/models/tvp/test_modeling_tvp.py::TVPModelTest::test_torch_export <- tests/test_modeling_common.py 
[gw20] [ 90%] PASSED tests/models/vits/test_modeling_vits.py::VitsModelTest::test_torch_export <- tests/test_modeling_common.py 
tests/models/x_clip/test_modeling_x_clip.py::XCLIPTextModelTest::test_torch_export <- tests/test_modeling_common.py 
[gw15] [ 90%] PASSED tests/models/whisper/test_modeling_whisper.py::WhisperModelTest::test_torch_export <- tests/test_modeling_common.py 
[gw38] [ 91%] PASSED tests/models/umt5/test_modeling_umt5.py::UMT5ModelTest::test_torch_export <- tests/test_modeling_common.py 
tests/models/vjepa2/test_modeling_vjepa2.py::VJEPA2ModelTest::test_torch_export <- tests/test_modeling_common.py 
[gw13] [ 91%] PASSED tests/models/modernbert/test_modeling_modernbert.py::ModernBertModelTest::test_torch_export <- tests/test_modeling_common.py 
tests/models/pix2struct/test_modeling_pix2struct.py::Pix2StructTextModelTest::test_torch_export <- tests/test_modeling_common.py 
[gw10] [ 91%] PASSED tests/models/vitmatte/test_modeling_vitmatte.py::VitMatteModelTest::test_torch_export <- tests/test_modeling_common.py 
[gw54] [ 91%] PASSED tests/models/tapas/test_modeling_tapas.py::TapasModelTest::test_torch_export <- tests/test_modeling_common.py 
[gw49] [ 92%] PASSED tests/models/xlm_roberta_xl/test_modeling_xlm_roberta_xl.py::XLMRobertaXLModelTest::test_torch_export <- tests/test_modeling_common.py 
[gw21] [ 92%] PASSED tests/models/unispeech_sat/test_modeling_unispeech_sat.py::UniSpeechSatModelTest::test_torch_export <- tests/test_modeling_common.py 
[gw20] [ 92%] PASSED tests/models/x_clip/test_modeling_x_clip.py::XCLIPTextModelTest::test_torch_export <- tests/test_modeling_common.py 
[gw44] [ 92%] PASSED tests/models/trocr/test_modeling_trocr.py::TrOCRStandaloneDecoderModelTest::test_torch_export <- tests/test_modeling_common.py 
[gw25] [ 92%] PASSED tests/models/wav2vec2/test_modeling_wav2vec2.py::Wav2Vec2RobustModelTest::test_torch_export <- tests/test_modeling_common.py 
tests/models/zamba2/test_modeling_zamba2.py::Zamba2ModelTest::test_torch_export <- tests/test_modeling_common.py 
[gw40] [ 93%] PASSED tests/models/yoso/test_modeling_yoso.py::YosoModelTest::test_torch_export <- tests/test_modeling_common.py 
[gw30] [ 93%] PASSED tests/models/wav2vec2/test_modeling_wav2vec2.py::Wav2Vec2ModelTest::test_torch_export <- tests/test_modeling_common.py 
[gw13] [ 93%] PASSED tests/models/pix2struct/test_modeling_pix2struct.py::Pix2StructTextModelTest::test_torch_export <- tests/test_modeling_common.py 
[gw2] [ 93%] PASSED tests/models/visual_bert/test_modeling_visual_bert.py::VisualBertModelTest::test_torch_export <- tests/test_modeling_common.py 
[gw37] [ 93%] PASSED tests/models/time_series_transformer/test_modeling_time_series_transformer.py::TimeSeriesTransformerModelTest::test_torch_export <- tests/test_modeling_common.py 
[gw50] [ 94%] PASSED tests/models/mobilevit/test_modeling_mobilevit.py::MobileViTModelTest::test_torch_export <- tests/test_modeling_common.py 
tests/models/vipllava/test_modeling_vipllava.py::VipLlavaForConditionalGenerationModelTest::test_torch_export <- tests/test_modeling_common.py 
[gw39] [ 94%] PASSED tests/models/sam_hq/test_modeling_sam_hq.py::SamHQModelTest::test_torch_export <- tests/test_modeling_common.py 
[gw18] [ 94%] PASSED tests/models/siglip/test_modeling_siglip.py::SiglipModelTest::test_torch_export <- tests/test_modeling_common.py 
tests/models/vilt/test_modeling_vilt.py::ViltForImagesAndTextClassificationModelTest::test_torch_export <- tests/test_modeling_common.py 
[gw36] [ 94%] PASSED tests/models/speecht5/test_modeling_speecht5.py::SpeechT5ForTextToSpeechTest::test_torch_export <- tests/test_modeling_common.py 
[gw59] [ 94%] FAILED tests/models/zamba/test_modeling_zamba.py::ZambaModelTest::test_torch_export <- tests/test_modeling_common.py 
[gw39] [ 95%] PASSED tests/models/vilt/test_modeling_vilt.py::ViltForImagesAndTextClassificationModelTest::test_torch_export <- tests/test_modeling_common.py 
[gw28] [ 95%] PASSED tests/models/wav2vec2_bert/test_modeling_wav2vec2_bert.py::Wav2Vec2BertModelTest::test_torch_export <- tests/test_modeling_common.py 
[gw26] [ 95%] PASSED tests/models/mm_grounding_dino/test_modeling_mm_grounding_dino.py::MMGroundingDinoModelTest::test_torch_export <- tests/test_modeling_common.py 
tests/models/qwen3_moe/test_modeling_qwen3_moe.py::Qwen3MoeModelTest::test_torch_export <- tests/test_modeling_common.py 
[gw23] [ 95%] PASSED tests/models/unispeech_sat/test_modeling_unispeech_sat.py::UniSpeechSatRobustModelTest::test_torch_export <- tests/test_modeling_common.py 
[gw3] [ 96%] PASSED tests/models/bigbird_pegasus/test_modeling_bigbird_pegasus.py::BigBirdPegasusModelTest::test_torch_export <- tests/test_modeling_common.py 
tests/models/timesfm/test_modeling_timesfm.py::TimesFmModelTest::test_torch_export <- tests/test_modeling_common.py 
[gw53] [ 96%] PASSED tests/models/smolvlm/test_modeling_smolvlm.py::SmolVLMModelTest::test_torch_export <- tests/test_modeling_common.py 
[gw12] [ 96%] PASSED tests/models/xlstm/test_modeling_xlstm.py::xLSTMModelTest::test_torch_export <- tests/test_modeling_common.py 
[gw14] [ 96%] PASSED tests/models/xlnet/test_modeling_xlnet.py::XLNetModelTest::test_torch_export <- tests/test_modeling_common.py 
[gw62] [ 96%] PASSED tests/models/wavlm/test_modeling_wavlm.py::WavLMModelTest::test_torch_export <- tests/test_modeling_common.py 
[gw24] [ 97%] PASSED tests/models/upernet/test_modeling_upernet.py::UperNetModelTest::test_torch_export <- tests/test_modeling_common.py 
[gw61] [ 97%] PASSED tests/models/speech_to_text/test_modeling_speech_to_text.py::Speech2TextModelTest::test_torch_export <- tests/test_modeling_common.py 
[gw33] [ 97%] PASSED tests/models/segformer/test_modeling_segformer.py::SegformerModelTest::test_torch_export <- tests/test_modeling_common.py 
[gw34] [ 97%] PASSED tests/models/t5gemma/test_modeling_t5gemma.py::T5GemmaModelTest::test_torch_export <- tests/test_modeling_common.py 
tests/models/video_llama_3/test_modeling_video_llama_3.py::VideoLlama3VisionModelTest::test_torch_export <- tests/test_modeling_common.py 
[gw3] [ 97%] PASSED tests/models/timesfm/test_modeling_timesfm.py::TimesFmModelTest::test_torch_export <- tests/test_modeling_common.py 
[gw34] [ 98%] PASSED tests/models/video_llama_3/test_modeling_video_llama_3.py::VideoLlama3VisionModelTest::test_torch_export <- tests/test_modeling_common.py 
[gw50] [ 98%] PASSED tests/models/vipllava/test_modeling_vipllava.py::VipLlavaForConditionalGenerationModelTest::test_torch_export <- tests/test_modeling_common.py 
[gw63] [ 98%] PASSED tests/models/xlm/test_modeling_xlm.py::XLMModelTest::test_torch_export <- tests/test_modeling_common.py 
[gw57] [ 98%] PASSED tests/models/wav2vec2_conformer/test_modeling_wav2vec2_conformer.py::Wav2Vec2ConformerModelTest::test_torch_export <- tests/test_modeling_common.py 
[gw51] [ 98%] PASSED tests/models/siglip2/test_modeling_siglip2.py::Siglip2ModelTest::test_torch_export <- tests/test_modeling_common.py 
[gw38] [ 99%] PASSED tests/models/vjepa2/test_modeling_vjepa2.py::VJEPA2ModelTest::test_torch_export <- tests/test_modeling_common.py 
[gw25] [ 99%] PASSED tests/models/zamba2/test_modeling_zamba2.py::Zamba2ModelTest::test_torch_export <- tests/test_modeling_common.py 
[gw26] [ 99%] PASSED tests/models/qwen3_moe/test_modeling_qwen3_moe.py::Qwen3MoeModelTest::test_torch_export <- tests/test_modeling_common.py 
[gw56] [ 99%] PASSED tests/models/qwen3_next/test_modeling_qwen3_next.py::Qwen3NextModelTest::test_torch_export <- tests/test_modeling_common.py 
tests/models/timm_backbone/test_modeling_timm_backbone.py::TimmBackboneModelTest::test_torch_export <- tests/test_modeling_common.py 
[gw56] [100%] FAILED tests/models/timm_backbone/test_modeling_timm_backbone.py::TimmBackboneModelTest::test_torch_export <- tests/test_modeling_common.py 

=================================== FAILURES ===================================
______________ EomtForUniversalSegmentationTest.test_torch_export ______________
[gw27] linux -- Python 3.10.12 /home/ilyas/transformers/.docker/bin/python3

self = <tests.models.eomt.test_modeling_eomt.EomtForUniversalSegmentationTest testMethod=test_torch_export>
atol = 0.0001, rtol = 0.0001

    @slow
    @require_torch_greater_or_equal("2.5")
    @pytest.mark.torch_export_test
    def test_torch_export(self, atol=1e-4, rtol=1e-4):
        """
        Test if model can be exported with torch.export.export()
    
        Args:
            atol (`float`, *optional*, defaults to 1e-4): absolute tolerance for output comparison
            rtol (`float`, *optional*, defaults to 1e-4): relative tolerance for output comparison
        """
    
        exporter = DynamoExporter(export_config=DynamoConfig())
    
        for model_class in self.all_model_classes:
            with self.subTest(model_class.__name__):
                if hasattr(self.model_tester, "prepare_config_and_inputs_for_model_class"):
                    config, inputs_dict = self.model_tester.prepare_config_and_inputs_for_model_class(model_class)
                else:
                    config, inputs_dict = self.model_tester.prepare_config_and_inputs_for_common()
                inputs_dict = self._prepare_for_class(inputs_dict, model_class)
                model = model_class(config).eval().to(torch_device)
    
                # prepare cache inputs for auto-regressive models and include it for computing eager outputs
                # process output flags (e.g. use_cache, output_attentions, etc) to avoid passing them as inputs
                model, inputs_dict = prepare_for_export(model, inputs_dict)
    
                with torch.no_grad():
                    # Running the eager inference before the export to catch model/inputs comatibility issues, also sometimes after
                    # the export, the model used for export will return FakeTensors instead of real ones (torch cuda/inductor issue)
                    # This happens on cuda with (codegen, clvp, esm, gptj, levit, wav2vec2_bert and wav2vec2_conformer)
                    set_seed(1234)
                    eager_outputs = model(**copy.deepcopy(inputs_dict))
                    eager_outputs = get_leaf_tensors(eager_outputs)
                    self.assertTrue(eager_outputs, "Eager outputs is empty.")
    
                try:
>                   exported_program = exporter.export(model, inputs_dict)

tests/test_modeling_common.py:3532: 
_ _ _ _ _ _ _ _ _ _ _ _ _ _ _ _ _ _ _ _ _ _ _ _ _ _ _ _ _ _ _ _ _ _ _ _ _ _ _ _ 
src/transformers/exporters/exporter_dynamo.py:122: in export
    exported_program: ExportedProgram = torch.export.export(
.docker/lib/python3.10/site-packages/torch/export/__init__.py:311: in export
    raise e
.docker/lib/python3.10/site-packages/torch/export/__init__.py:277: in export
    return _export(
.docker/lib/python3.10/site-packages/torch/export/_trace.py:1163: in wrapper
    raise e
.docker/lib/python3.10/site-packages/torch/export/_trace.py:1129: in wrapper
    ep = fn(*args, **kwargs)
.docker/lib/python3.10/site-packages/torch/export/exported_program.py:124: in wrapper
    return fn(*args, **kwargs)
.docker/lib/python3.10/site-packages/torch/export/_trace.py:2255: in _export
    ep = _export_for_training(
.docker/lib/python3.10/site-packages/torch/export/_trace.py:1163: in wrapper
    raise e
.docker/lib/python3.10/site-packages/torch/export/_trace.py:1129: in wrapper
    ep = fn(*args, **kwargs)
.docker/lib/python3.10/site-packages/torch/export/exported_program.py:124: in wrapper
    return fn(*args, **kwargs)
.docker/lib/python3.10/site-packages/torch/export/_trace.py:2071: in _export_for_training
    export_artifact = export_func(
.docker/lib/python3.10/site-packages/torch/export/_trace.py:2002: in _non_strict_export
    aten_export_artifact = _to_aten_func(  # type: ignore[operator]
.docker/lib/python3.10/site-packages/torch/export/_trace.py:1793: in _export_to_aten_ir_make_fx
    gm, graph_signature = transform(_make_fx_helper)(
.docker/lib/python3.10/site-packages/torch/export/_trace.py:1922: in _aot_export_non_strict
    gm, sig = aot_export(wrapped_mod, args, kwargs=kwargs, **flags)
.docker/lib/python3.10/site-packages/torch/export/_trace.py:1706: in _make_fx_helper
    gm = make_fx(
.docker/lib/python3.10/site-packages/torch/fx/experimental/proxy_tensor.py:2429: in wrapped
    return make_fx_tracer.trace(f, *args)
.docker/lib/python3.10/site-packages/torch/fx/experimental/proxy_tensor.py:2356: in trace
    return self._trace_inner(f, *args)
.docker/lib/python3.10/site-packages/torch/fx/experimental/proxy_tensor.py:2318: in _trace_inner
    t = dispatch_trace(
.docker/lib/python3.10/site-packages/torch/_compile.py:53: in inner
    return disable_fn(*args, **kwargs)
.docker/lib/python3.10/site-packages/torch/_dynamo/eval_frame.py:1044: in _fn
    return fn(*args, **kwargs)
.docker/lib/python3.10/site-packages/torch/fx/experimental/proxy_tensor.py:1303: in dispatch_trace
    graph = tracer.trace(root, concrete_args)  # type: ignore[arg-type]
.docker/lib/python3.10/site-packages/torch/fx/experimental/proxy_tensor.py:1908: in trace
    res = super().trace(root, concrete_args)
.docker/lib/python3.10/site-packages/torch/_dynamo/eval_frame.py:1044: in _fn
    return fn(*args, **kwargs)
.docker/lib/python3.10/site-packages/torch/fx/_symbolic_trace.py:868: in trace
    (self.create_arg(fn(*args)),),
.docker/lib/python3.10/site-packages/torch/fx/experimental/proxy_tensor.py:1361: in wrapped
    out = f(*tensors)  # type:ignore[call-arg]
<string>:1: in <lambda>
    ???
.docker/lib/python3.10/site-packages/torch/export/_trace.py:1593: in wrapped_fn
    return tuple(flat_fn(*args))
.docker/lib/python3.10/site-packages/torch/_functorch/_aot_autograd/utils.py:187: in flat_fn
    tree_out = fn(*args, **kwargs)
.docker/lib/python3.10/site-packages/torch/_functorch/_aot_autograd/graph_capture_wrappers.py:1354: in functional_call
    out = mod(*args[params_len:], **kwargs)
.docker/lib/python3.10/site-packages/torch/fx/_symbolic_trace.py:843: in module_call_wrapper
    return self.call_module(mod, forward, args, kwargs)
.docker/lib/python3.10/site-packages/torch/fx/experimental/proxy_tensor.py:1997: in call_module
    return Tracer.call_module(self, m, forward, args, kwargs)
.docker/lib/python3.10/site-packages/torch/fx/_symbolic_trace.py:560: in call_module
    ret_val = forward(*args, **kwargs)
.docker/lib/python3.10/site-packages/torch/fx/_symbolic_trace.py:836: in forward
    return _orig_module_call(mod, *args, **kwargs)
.docker/lib/python3.10/site-packages/torch/nn/modules/module.py:1775: in _wrapped_call_impl
    return self._call_impl(*args, **kwargs)
.docker/lib/python3.10/site-packages/torch/nn/modules/module.py:1786: in _call_impl
    return forward_call(*args, **kwargs)
.docker/lib/python3.10/site-packages/torch/export/_trace.py:1906: in forward
    tree_out = mod(*args, **kwargs)
.docker/lib/python3.10/site-packages/torch/fx/_symbolic_trace.py:843: in module_call_wrapper
    return self.call_module(mod, forward, args, kwargs)
.docker/lib/python3.10/site-packages/torch/fx/experimental/proxy_tensor.py:1997: in call_module
    return Tracer.call_module(self, m, forward, args, kwargs)
.docker/lib/python3.10/site-packages/torch/fx/_symbolic_trace.py:560: in call_module
    ret_val = forward(*args, **kwargs)
.docker/lib/python3.10/site-packages/torch/fx/_symbolic_trace.py:836: in forward
    return _orig_module_call(mod, *args, **kwargs)
.docker/lib/python3.10/site-packages/torch/nn/modules/module.py:1775: in _wrapped_call_impl
    return self._call_impl(*args, **kwargs)
.docker/lib/python3.10/site-packages/torch/nn/modules/module.py:1786: in _call_impl
    return forward_call(*args, **kwargs)
src/transformers/utils/generic.py:928: in wrapper
    outputs = func(self, *args, **kwargs)
src/transformers/models/eomt/modeling_eomt.py:1151: in forward
    attention_mask = self._disable_attention_mask(
src/transformers/models/eomt/modeling_eomt.py:1215: in _disable_attention_mask
    if prob < 1:
.docker/lib/python3.10/site-packages/torch/fx/experimental/proxy_tensor.py:1409: in __torch_function__
    return func(*args, **kwargs)
.docker/lib/python3.10/site-packages/torch/fx/experimental/proxy_tensor.py:1479: in __torch_function__
    return func(*args, **kwargs)
.docker/lib/python3.10/site-packages/torch/_export/non_strict_utils.py:1066: in __torch_function__
    return func(*args, **kwargs)
.docker/lib/python3.10/site-packages/torch/fx/experimental/sym_node.py:538: in guard_bool
    r = self.evaluate()
.docker/lib/python3.10/site-packages/torch/fx/experimental/sym_node.py:512: in evaluate
    return self.shape_env.evaluate_sym_node(self, size_oblivious)
.docker/lib/python3.10/site-packages/torch/fx/experimental/symbolic_shapes.py:7233: in evaluate_sym_node
    return self.evaluate_expr(
.docker/lib/python3.10/site-packages/torch/fx/experimental/symbolic_shapes.py:7333: in evaluate_expr
    return self._inner_evaluate_expr(
.docker/lib/python3.10/site-packages/torch/fx/experimental/recording.py:272: in wrapper
    return retlog(fn(*args, **kwargs))
.docker/lib/python3.10/site-packages/torch/fx/experimental/symbolic_shapes.py:7356: in _inner_evaluate_expr
    return self._evaluate_expr(
_ _ _ _ _ _ _ _ _ _ _ _ _ _ _ _ _ _ _ _ _ _ _ _ _ _ _ _ _ _ _ _ _ _ _ _ _ _ _ _ 

self = <torch.fx.experimental.symbolic_shapes.ShapeEnv object at 0x7f3e10bd6650>
orig_expr = Eq(u0, 1), hint = None, fx_node = False, size_oblivious = False
fallback_value = None

    def _evaluate_expr(
        self,
        orig_expr: sympy.Basic,
        hint: Optional[Union[bool, int, float]] = None,
        fx_node: Optional[torch.fx.Node] = None,
        size_oblivious: bool = False,
        fallback_value: Optional[bool] = None,
        *,
        forcing_spec: bool = False,
    ) -> sympy.Basic:
        # TODO: split conjunctions and evaluate them separately
    
        if isinstance(
            orig_expr,
            (sympy.logic.boolalg.BooleanTrue, sympy.logic.boolalg.BooleanFalse),
        ):
            return orig_expr
    
        # Don't track this one. (Because this cache is inside this function the
        # cache only lasts for the invocation of this function call)
        @functools.cache
        def compute_concrete_val() -> sympy.Basic:
            if hint is None:
                # This is only ever called for expressions WITHOUT unbacked
                # symbols
                r = self.size_hint(orig_expr)
                assert r is not None
                return r
            else:
                return sympy.sympify(hint)
    
        concrete_val: Optional[sympy.Basic]
    
        # Check if:
        #   1. 'translation_validation' is set
        #   2. the corresponding 'fx_node' is not 'None'
        #   3. the guard should not be suppressed
        #   4. the guard doesn't contain backed symfloat symbols
        #      since z3 can't handle floats
        #   5. fallback_value is none.
        # If all of the above check, we create an FX node representing the
        # actual expression to be guarded.
        node = None
        fresh = False
        if (
            self._translation_validation_enabled
            and fx_node is not None
            and not self._suppress_guards_tls()
            and not size_oblivious
            and not any(symbol_is_type(s, SymT.FLOAT) for s in orig_expr.free_symbols)
            and fallback_value is None
        ):
            # TODO: does this even worked with unbacked :think:
            concrete_val = compute_concrete_val()
            if concrete_val is sympy.true:
                node, fresh = self._create_fx_call_function(torch._assert, (fx_node,))
            elif concrete_val is sympy.false:
                neg, _ = self._create_fx_call_function(operator.not_, (fx_node,))
                node, fresh = self._create_fx_call_function(torch._assert, (neg,))
            else:
                eql, _ = self._create_fx_call_function(
                    operator.eq, (fx_node, concrete_val)
                )
                node, fresh = self._create_fx_call_function(torch._assert, (eql,))
    
            assert node is not None
            # If this is a fresh node, we have to remember the event index that
            # corresponds to this assertion node.
            # Reason: so that, given an assertion node, we can replay the ShapeEnv
            # events until the point where this assertion node was freshly created.
            if fresh:
                self._add_fx_node_metadata(node)
    
        # After creating the FX node corresponding to orig_expr, we must make sure that
        # no error will be raised until the end of this function.
        #
        # Reason: the translation validation may become invalid otherwise.
        #
        # If an error is raised before the end of this function, we remove the FX node
        # inserted, and re-raise the error.
        guard = None
    
        try:
            if orig_expr.is_number:
                self.log.debug("eval %s [trivial]", orig_expr)
                if hint is not None:
                    if isinstance(hint, bool):
                        assert orig_expr == hint, f"{orig_expr} != {hint}"
                    else:
                        assert sympy.Eq(orig_expr, hint), f"{orig_expr} != {hint}"
                return orig_expr
    
            expr = orig_expr
    
            static_expr = self._maybe_evaluate_static(
                expr, size_oblivious=size_oblivious
            )
            if static_expr is not None:
                self.log.debug(
                    "eval %s == %s [statically known]",
                    (
                        f"size_oblivious({orig_expr})"
                        if size_oblivious
                        else size_oblivious
                    ),
                    static_expr,
                )
                if (
                    not size_oblivious
                    and config.backed_size_oblivious
                    and hint is not None
                ):
                    # TODO: maybe reconcile this with use of counterfactual hints
                    # in unbacked case
                    assert static_expr == hint, f"{static_expr} != {hint}"
                return static_expr
    
            transmute_into_runtime_assert = False
    
            concrete_val = None
            if not (expr.free_symbols <= self.var_to_val.keys()):
                # TODO: dedupe this with _maybe_evaluate_static
                # Attempt to eliminate the unbacked SymInt
                new_expr = self._maybe_evaluate_static(expr, unbacked_only=True)
                assert new_expr is not None
                if not (new_expr.free_symbols <= self.var_to_val.keys()):
                    ok = False
    
                    # fallback_value is set when guard_or_true or guard_or_false are used.
                    if not ok and fallback_value is not None:
                        self._log_suppressed_dde(orig_expr, fallback_value)
                        return fallback_value
    
                    # oblivious_var_to_val will be defined iff we have sizes with DimDynamic.OBLIVIOUS_SIZE type.
                    # See https://github.com/pytorch/pytorch/issues/137100#issuecomment-2495778113
                    if (
                        self.oblivious_var_to_val
                        and not (
                            correct_hint := orig_expr.xreplace(
                                self.oblivious_var_to_val
                            )
                        ).free_symbols
                        and not (
                            counterfactual_hint := orig_expr.xreplace(
                                {
                                    k: max(2, v)
                                    for k, v in self.oblivious_var_to_val.items()
                                }
                            )
                        ).free_symbols
                        and correct_hint == counterfactual_hint
                    ):
                        # TODO: better logging
                        log.info(
                            "oblivious_size %s -> %s (passed counterfactual)",
                            orig_expr,
                            correct_hint,
                        )
                        concrete_val = correct_hint
                        # NB: do NOT transmute into runtime assert
                        ok = True
    
                    # unbacked_var_to_val is not None iff propagate_real_tensors is on.
                    # if propagate_real_tensors is on, we check the example values to generate (unsound_result)
                    # and if they pass we add a runtime assertions and continue.
                    if (
                        not ok
                        and self.unbacked_var_to_val
                        and not (
                            unsound_result := orig_expr.xreplace(
                                self.unbacked_var_to_val
                            ).xreplace(self.var_to_val)
                        ).free_symbols
                    ):
                        self._log_real_tensor_propagation(orig_expr, unsound_result)
                        transmute_into_runtime_assert = True
                        concrete_val = unsound_result
                        ok = True
    
                    # Check if this is coming from a python assert statement, if so, convert it to a runtime assertion
                    # instead of failing.
                    if not ok and self.trace_asserts and self._is_python_assert():
                        concrete_val = sympy.true
                        transmute_into_runtime_assert = True
                        ok = True
    
                    if not ok:
>                       raise self._make_data_dependent_error(
                            expr.xreplace(self.var_to_val),
                            expr,
                            expr_sym_node_id=self._expr_sym_node_id,
                        )
E                       torch.fx.experimental.symbolic_shapes.GuardOnDataDependentSymNode: Could not guard on data-dependent expression Eq(u0, 1) (unhinted: Eq(u0, 1)).  (Size-like symbols: none)
E                       
E                       consider using data-dependent friendly APIs such as guard_or_false, guard_or_true and statically_known_trueCaused by: (_export/non_strict_utils.py:1066 in __torch_function__)
E                       For more information, run with TORCH_LOGS="dynamic"
E                       For extended logs when we create symbols, also add TORCHDYNAMO_EXTENDED_DEBUG_CREATE_SYMBOL="u0"
E                       If you suspect the guard was triggered from C++, add TORCHDYNAMO_EXTENDED_DEBUG_CPP=1
E                       For more debugging help, see https://docs.google.com/document/d/1HSuTTVvYH1pTew89Rtpeu84Ht3nQEFTYhAX3Ypa_xJs/edit?usp=sharing
E                       
E                       For C++ stack trace, run with TORCHDYNAMO_EXTENDED_DEBUG_CPP=1
E                       
E                       The following call raised this error:
E                         File "/home/ilyas/transformers/src/transformers/models/eomt/modeling_eomt.py", line 1215, in _disable_attention_mask
E                           if prob < 1:
E                       
E                       
E                       The error above occurred when calling torch.export.export. If you would like to view some more information about this error, and get a list of all other errors that may occur in your export call, you can replace your `export()` call with `draft_export()`.

.docker/lib/python3.10/site-packages/torch/fx/experimental/symbolic_shapes.py:7574: GuardOnDataDependentSymNode
----------------------------- Captured stderr call -----------------------------
W1121 07:11:16.101000 21967 .docker/lib/python3.10/site-packages/torch/fx/experimental/symbolic_shapes.py:7942] Unable to find user code corresponding to {u0}



def forward(self, arg0_1: "f32[1, 1, 8]", arg1_1: "f32[1, 19, 8]", arg2_1: "f32[8, 3, 2, 2]", arg3_1: "f32[8]", arg4_1: "f32[400, 8]", arg5_1: "f32[8]", arg6_1: "f32[8]", arg7_1: "f32[5, 8]", arg8_1: "f32[8]", arg9_1: "f32[8]", arg10_1: "f32[8, 8]", arg11_1: "f32[8]", arg12_1: "f32[8, 8]", arg13_1: "f32[8]", arg14_1: "f32[8, 8]", arg15_1: "f32[8]", arg16_1: "f32[8, 8]", arg17_1: "f32[8]", arg18_1: "f32[8]", arg19_1: "f32[8]", arg20_1: "f32[8]", arg21_1: "f32[32, 8]", arg22_1: "f32[32]", arg23_1: "f32[8, 32]", arg24_1: "f32[8]", arg25_1: "f32[8]", arg26_1: "f32[8]", arg27_1: "f32[8]", arg28_1: "f32[8, 8]", arg29_1: "f32[8]", arg30_1: "f32[8, 8]", arg31_1: "f32[8]", arg32_1: "f32[8, 8]", arg33_1: "f32[8]", arg34_1: "f32[8, 8]", arg35_1: "f32[8]", arg36_1: "f32[8]", arg37_1: "f32[8]", arg38_1: "f32[8]", arg39_1: "f32[32, 8]", arg40_1: "f32[32]", arg41_1: "f32[8, 32]", arg42_1: "f32[8]", arg43_1: "f32[8]", arg44_1: "f32[8, 8, 2, 2]", arg45_1: "f32[8]", arg46_1: "f32[8, 1, 3, 3]", arg47_1: "f32[8]", arg48_1: "f32[8]", arg49_1: "f32[8, 8, 2, 2]", arg50_1: "f32[8]", arg51_1: "f32[8, 1, 3, 3]", arg52_1: "f32[8]", arg53_1: "f32[8]", arg54_1: "f32[8, 8]", arg55_1: "f32[8]", arg56_1: "f32[8, 8]", arg57_1: "f32[8]", arg58_1: "f32[8, 8]", arg59_1: "f32[8]", arg60_1: "f32[5, 8]", arg61_1: "f32[5]", arg62_1: "f32[1]", arg63_1: "i64[1, 400]", arg64_1: "f32[5]", arg65_1: "f32[2, 3, 40, 40]"):
     # File: /home/ilyas/transformers/src/transformers/models/eomt/modeling_eomt.py:701 in forward, code: embeddings = self.patch_embeddings(pixel_values.to(dtype=target_dtype))
    to: "f32[2, 3, 40, 40]" = torch.ops.aten.to.dtype(arg65_1, torch.float32);  arg65_1 = None
    
…
>                       raise self._make_data_dependent_error(
                            expr.xreplace(self.var_to_val),
                            expr,
                            expr_sym_node_id=self._expr_sym_node_id,
                        )
E                       torch.fx.experimental.symbolic_shapes.GuardOnDataDependentSymNode: Could not guard on data-dependent expression Eq(u1, 1) (unhinted: Eq(u1, 1)).  (Size-like symbols: none)
E                       
E                       consider using data-dependent friendly APIs such as guard_or_false, guard_or_true and statically_known_trueCaused by: (_export/non_strict_utils.py:1066 in __torch_function__)
E                       For more information, run with TORCH_LOGS="dynamic"
E                       For extended logs when we create symbols, also add TORCHDYNAMO_EXTENDED_DEBUG_CREATE_SYMBOL="u1"
E                       If you suspect the guard was triggered from C++, add TORCHDYNAMO_EXTENDED_DEBUG_CPP=1
E                       For more debugging help, see https://docs.google.com/document/d/1HSuTTVvYH1pTew89Rtpeu84Ht3nQEFTYhAX3Ypa_xJs/edit?usp=sharing
E                       
E                       For C++ stack trace, run with TORCHDYNAMO_EXTENDED_DEBUG_CPP=1
E                       
E                       The following call raised this error:
E                         File "/home/ilyas/transformers/src/transformers/models/zamba/modeling_zamba.py", line 508, in slow_forward
E                           if attention_mask is not None and not torch.all(attention_mask == 1):
E                       
E                       
E                       The error above occurred when calling torch.export.export. If you would like to view some more information about this error, and get a list of all other errors that may occur in your export call, you can replace your `export()` call with `draft_export()`.

.docker/lib/python3.10/site-packages/torch/fx/experimental/symbolic_shapes.py:7574: GuardOnDataDependentSymNode
----------------------------- Captured stderr call -----------------------------
The fast path is not available because one of `(selective_state_update, selective_scan_fn, causal_conv1d_fn, causal_conv1d_update, mamba_inner_fn)` is None. To install follow https://github.com/state-spaces/mamba/#installation and https://github.com/Dao-AILab/causal-conv1d. If you want to use the naive implementation, set `use_mamba_kernels=False` in the model config
Zamba requires an initialized `ZambaHybridDynamicCache` to return a cache. None was provided, so no cache will be returned.
W1121 07:11:35.511000 24079 .docker/lib/python3.10/site-packages/torch/fx/experimental/symbolic_shapes.py:7942] Unable to find user code corresponding to {u1}



def forward(self, arg0_1: "f32[99, 64]", arg1_1: "f32[2, 64, 64]", arg2_1: "f32[2, 64, 32]", arg3_1: "f32[2, 64]", arg4_1: "f32[2, 64, 16]", arg5_1: "f32[2, 64]", arg6_1: "f32[128, 1, 4]", arg7_1: "f32[128]", arg8_1: "f32[256, 64]", arg9_1: "f32[64, 128]", arg10_1: "f32[64]", arg11_1: "f32[2, 64, 64]", arg12_1: "f32[2, 64, 32]", arg13_1: "f32[2, 64]", arg14_1: "f32[2, 64, 16]", arg15_1: "f32[2, 64]", arg16_1: "f32[128, 1, 4]", arg17_1: "f32[128]", arg18_1: "f32[256, 64]", arg19_1: "f32[64, 128]", arg20_1: "f32[64]", arg21_1: "f32[128, 128]", arg22_1: "f32[128, 128]", arg23_1: "f32[128, 128]", arg24_1: "f32[64, 128]", arg25_1: "f32[37, 64]", arg26_1: "f32[37, 64]", arg27_1: "f32[64, 37]", arg28_1: "f32[128]", arg29_1: "f32[64]", arg30_1: "f32[64, 64]", arg31_1: "f32[2, 64, 64]", arg32_1: "f32[2, 64, 32]", arg33_1: "f32[2, 64]", arg34_1: "f32[2, 64, 16]", arg35_1: "f32[2, 64]", arg36_1: "f32[128, 1, 4]", arg37_1: "f32[128]", arg38_1: "f32[256, 64]", arg39_1: "f32[64, 128]", arg40_1: "f32[64]", arg41_1: "f32[2, 64, 64]", arg42_1: "f32[2, 64, 32]", arg43_1: "f32[2, 64]", arg44_1: "f32[2, 64, 16]", arg45_1: "f32[2, 64]", arg46_1: "f32[128, 1, 4]", arg47_1: "f32[128]", arg48_1: "f32[256, 64]", arg49_1: "f32[64, 128]", arg50_1: "f32[64]", arg51_1: "f32[128, 128]", arg52_1: "f32[128, 128]", arg53_1: "f32[128, 128]", arg54_1: "f32[64, 128]", arg55_1: "f32[37, 64]", arg56_1: "f32[37, 64]", arg57_1: "f32[64, 37]", arg58_1: "f32[128]", arg59_1: "f32[64]", arg60_1: "f32[64, 64]", arg61_1: "f32[2, 64, 64]", arg62_1: "f32[2, 64, 32]", arg63_1: "f32[2, 64]", arg64_1: "f32[2, 64, 16]", arg65_1: "f32[2, 64]", arg66_1: "f32[128, 1, 4]", arg67_1: "f32[128]", arg68_1: "f32[256, 64]", arg69_1: "f32[64, 128]", arg70_1: "f32[64]", arg71_1: "f32[64]", arg72_1: "i64[13, 7]", arg73_1: "i64[13, 7]"):
     # File: /home/ilyas/transformers/.docker/lib/python3.10/site-packages/torch/nn/modules/sparse.py:192 in forward, code: return F.embedding(
    embedding: "f32[13, 7, 64]" = torch.ops.aten.embedding.default(arg0_1, arg72_1, 0);  arg0_1 = arg72_1 = None
    
     # File: /home/ilyas/transformers/src/transformers/models/zamba/modeling_zamba.py:924 in forward, code: original_hidden_states = torch.clone(inputs_embeds)
    clone: "f32[13, 7, 64]" = torch.ops.aten.clone.default(embedding);  clone = None
    
     # File: /home/ilyas/transformers/src/transformers/models/zamba/modeling_zamba.py:934 in forward, code: cache_position = torch.arange(hidden_states.shape[1], device=hidden_states.device)
    arange: "i64[7]" = torch.ops.aten.arange.default(7, device = device(type='cuda', index=0), pin_memory = False)
    
     # File: /home/ilyas/transformers/src/transformers/models/zamba/modeling_zamba.py:936 in forward, code: position_ids = cache_position.unsqueeze(0)
    unsqueeze: "i64[1, 7]" = torch.ops.aten.unsqueeze.default(arange, 0);  unsqueeze = None
    
     # File: /home/ilyas/transformers/src/transformers/models/zamba/modeling_zamba.py:938 in forward, code: causal_mask = self._update_causal_mask(attention_mask, inputs_embeds, cache_position)
    select: "i64[]" = torch.ops.aten.select.int(arange, 0, -1)
    add: "i64[]" = torch.ops.aten.add.Tensor(select, 1);  select = None
    item: "Sym(u0)" = torch.ops.aten.item.default(add)
    full: "f32[7, u0]" = torch.ops.aten.full.default([7, item], -3.4028234663852886e+38, dtype = torch.float32, device = device(type='cuda', index=0), pin_memory = False)
    triu: "f32[7, u0]" = torch.ops.aten.triu.default(full, 1);  full = None
    item_1: "Sym(u0)" = torch.ops.aten.item.default(add);  add = item_1 = None
    arange_1: "i64[u0]" = torch.ops.aten.arange.default(item, device = device(type='cuda', index=0), pin_memory = False);  item = None
    reshape: "i64[7, 1]" = torch.ops.aten.reshape.default(arange, [-1, 1]);  arange = None
    gt: "b8[7, u0]" = torch.ops.aten.gt.Tensor(arange_1, reshape);  arange_1 = reshape = None
    to: "b8[7, u0]" = torch.ops.aten.to.dtype(gt, torch.bool);  gt = None
    mul_: "f32[7, u0]" = torch.ops.aten.mul_.Tensor(triu, to);  to = None
    unsqueeze_1: "f32[1, 7, u0]" = torch.ops.aten.unsqueeze.default(mul_, 0);  mul_ = None
    unsqueeze_2: "f32[1, 1, 7, u0]" = torch.ops.aten.unsqueeze.default(unsqueeze_1, 1);  unsqueeze_1 = None
    sym_size_int: "Sym(u0)" = torch.ops.aten.sym_size.int(triu, 1);  triu = None
    le: "Sym(u0 <= 9223372036854775807)" = sym_size_int <= 9223372036854775807;  sym_size_int = le = None
    slice_1: "f32[1, 1, 7, u0]" = torch.ops.aten.slice.Tensor(unsqueeze_2, 3, 0, 9223372036854775807);  unsqueeze_2 = None
    expand: "f32[13, 1, 7, u0]" = torch.ops.aten.expand.default(slice_1, [13, 1, -1, -1])
    clone_1: "f32[13, 1, 7, u0]" = torch.ops.aten.clone.default(expand);  expand = None
    sym_size_int_1: "Sym(u0)" = torch.ops.aten.sym_size.int(slice_1, 3);  slice_1 = None
    ge: "Sym(u0 >= 7)" = sym_size_int_1 >= 7;  ge = None
    le_1: "Sym(u0 <= 7)" = sym_size_int_1 <= 7;  le_1 = None
    slice_2: "f32[13, 1, 7, 7]" = torch.ops.aten.slice.Tensor(clone_1, 3, 0, 7)
    eq: "b8[13, 1, 7, 7]" = torch.ops.aten.eq.Scalar(slice_2, 0.0);  slice_2 = None
    unsqueeze_3: "i64[13, 1, 7]" = torch.ops.aten.unsqueeze.default(arg73_1, 1)
    unsqueeze_4: "i64[13, 1, 1, 7]" = torch.ops.aten.unsqueeze.default(unsqueeze_3, 2);  unsqueeze_3 = None
    eq_1: "b8[13, 1, 1, 7]" = torch.ops.aten.eq.Scalar(unsqueeze_4, 0.0);  unsqueeze_4 = None
    mul: "b8[13, 1, 7, 7]" = torch.ops.aten.mul.Tensor(eq, eq_1);  eq = eq_1 = None
    le_2: "Sym(u0 <= 7)" = sym_size_int_1 <= 7;  le_2 = None
    slice_3: "f32[13, 1, 7, 7]" = torch.ops.aten.slice.Tensor(clone_1, 3, 0, 7)
    masked_fill: "f32[13, 1, 7, 7]" = torch.ops.aten.masked_fill.Scalar(slice_3, mul, -3.4028234663852886e+38);  slice_3 = mul = None
    le_3: "Sym(u0 <= 7)" = sym_size_int_1 <= 7;  sym_size_int_1 = le_3 = None
    slice_4: "f32[13, 1, 7, 7]" = torch.ops.aten.slice.Tensor(clone_1, 3, 0, 7);  clone_1 = None
    copy_: "f32[13, 1, 7, 7]" = torch.ops.aten.copy_.default(slice_4, masked_fill);  slice_4 = masked_fill = copy_ = None
    
     # File: /home/ilyas/transformers/src/transformers/models/zamba/modeling_zamba.py:75 in forward, code: hidden_states = hidden_states.to(torch.float32)
    to_1: "f32[13, 7, 64]" = torch.ops.aten.to.dtype(embedding, torch.float32);  embedding = None
    
     # File: /home/ilyas/transformers/src/transformers/models/zamba/modeling_zamba.py:76 in forward, code: variance = hidden_states.pow(2).mean(-1, keepdim=True)
    pow_1: "f32[13, 7, 64]" = torch.ops.aten.pow.Tensor_Scalar(to_1, 2)
    mean: "f32[13, 7, 1]" = torch.ops.aten.mean.dim(pow_1, [-1], True);  pow_1 = None
    
     # File: /home/ilyas/transformers/src/transformers/models/zamba/modeling_zamba.py:77 in forward, code: hidden_states = hidden_states * torch.rsqrt(variance + self.variance_epsilon)
    add_1: "f32[13, 7, 1]" = torch.ops.aten.add.Tensor(mean, 1e-05);  mean = None
    rsqrt: "f32[13, 7, 1]" = torch.ops.aten.rsqrt.default(add_1);  add_1 = None
    mul_1: "f32[13, 7, 64]" = torch.ops.aten.mul.Tensor(to_1, rsqrt);  to_1 = rsqrt = None
    
     # File: /home/ilyas/transformers/src/transformers/models/zamba/modeling_zamba.py:78 in forward, code: return self.weight * hidden_states.to(input_dtype)
    to_2: "f32[13, 7, 64]" = torch.ops.aten.to.dtype(mul_1, torch.float32);  mul_1 = None
    mul_2: "f32[13, 7, 64]" = torch.ops.aten.mul.Tensor(arg10_1, to_2);  arg10_1 = to_2 = None
    
     # File: /home/ilyas/transformers/.docker/lib/python3.10/site-packages/torch/nn/modules/linear.py:134 in forward, code: return F.linear(input, self.weight, self.bias)
    linear: "f32[13, 7, 256]" = torch.ops.aten.linear.default(mul_2, arg8_1);  mul_2 = arg8_1 = None
    
     # File: /home/ilyas/transformers/src/transformers/models/zamba/modeling_zamba.py:561 in forward, code: return self.slow_forward(hidden_states, cache_params, attention_mask=attention_mask)
    transpose: "f32[13, 256, 7]" = torch.ops.aten.transpose.int(linear, 1, 2);  linear = None
    view: "f32[13, 128, 2, 7]" = torch.ops.aten.view.default(transpose, [13, -1, 2, 7]);  transpose = None
    chunk = torch.ops.aten.chunk.default(view, 2, 2);  view = None
    getitem: "f32[13, 128, 1, 7]" = chunk[0]
    getitem_1: "f32[13, 128, 1, 7]" = chunk[1];  chunk = None
    squeeze: "f32[13, 128, 7]" = torch.ops.aten.squeeze.dim(getitem, 2);  getitem = None
    contiguous: "f32[13, 128, 7]" = torch.ops.aten.contiguous.default(squeeze);  squeeze = contiguous = None
    squeeze_1: "f32[13, 128, 7]" = torch.ops.aten.squeeze.dim(getitem_1, 2);  getitem_1 = None
    reshape_1: "f32[13, 2, 64, 7]" = torch.ops.aten.reshape.default(squeeze_1, [13, 2, -1, 7]);  squeeze_1 = None
    transpose_1: "f32[2, 13, 64, 7]" = torch.ops.aten.transpose.int(reshape_1, 0, 1);  reshape_1 = transpose_1 = None
    zeros: "f32[13, 2, 64, 16]" = torch.ops.aten.zeros.default([13, 2, 64, 16], dtype = torch.float32, device = device(type='cuda', index=0), pin_memory = False);  zeros = None
    eq_2: "b8[13, 7]" = torch.ops.aten.eq.Scalar(arg73_1, 1);  arg73_1 = None
    all_1: "b8[]" = torch.ops.aten.all.default(eq_2);  eq_2 = None
    ne: "b8[]" = torch.ops.aten.ne.Scalar(all_1, 0);  all_1 = None
    item_2: "Sym(Eq(u1, 1))" = torch.ops.aten.item.default(ne);  ne = item_2 = None
    



def forward(self, arg0_1: "f32[99, 64]", arg1_1: "f32[2, 64, 64]", arg2_1: "f32[2, 64, 32]", arg3_1: "f32[2, 64]", arg4_1: "f32[2, 64, 16]", arg5_1: "f32[2, 64]", arg6_1: "f32[128, 1, 4]", arg7_1: "f32[128]", arg8_1: "f32[256, 64]", arg9_1: "f32[64, 128]", arg10_1: "f32[64]", arg11_1: "f32[2, 64, 64]", arg12_1: "f32[2, 64, 32]", arg13_1: "f32[2, 64]", arg14_1: "f32[2, 64, 16]", arg15_1: "f32[2, 64]", arg16_1: "f32[128, 1, 4]", arg17_1: "f32[128]", arg18_1: "f32[256, 64]", arg19_1: "f32[64, 128]", arg20_1: "f32[64]", arg21_1: "f32[128, 128]", arg22_1: "f32[128, 128]", arg23_1: "f32[128, 128]", arg24_1: "f32[64, 128]", arg25_1: "f32[37, 64]", arg26_1: "f32[37, 64]", arg27_1: "f32[64, 37]", arg28_1: "f32[128]", arg29_1: "f32[64]", arg30_1: "f32[64, 64]", arg31_1: "f32[2, 64, 64]", arg32_1: "f32[2, 64, 32]", arg33_1: "f32[2, 64]", arg34_1: "f32[2, 64, 16]", arg35_1: "f32[2, 64]", arg36_1: "f32[128, 1, 4]", arg37_1: "f32[128]", arg38_1: "f32[256, 64]", arg39_1: "f32[64, 128]", arg40_1: "f32[64]", arg41_1: "f32[2, 64, 64]", arg42_1: "f32[2, 64, 32]", arg43_1: "f32[2, 64]", arg44_1: "f32[2, 64, 16]", arg45_1: "f32[2, 64]", arg46_1: "f32[128, 1, 4]", arg47_1: "f32[128]", arg48_1: "f32[256, 64]", arg49_1: "f32[64, 128]", arg50_1: "f32[64]", arg51_1: "f32[128, 128]", arg52_1: "f32[128, 128]", arg53_1: "f32[128, 128]", arg54_1: "f32[64, 128]", arg55_1: "f32[37, 64]", arg56_1: "f32[37, 64]", arg57_1: "f32[64, 37]", arg58_1: "f32[128]", arg59_1: "f32[64]", arg60_1: "f32[64, 64]", arg61_1: "f32[2, 64, 64]", arg62_1: "f32[2, 64, 32]", arg63_1: "f32[2, 64]", arg64_1: "f32[2, 64, 16]", arg65_1: "f32[2, 64]", arg66_1: "f32[128, 1, 4]", arg67_1: "f32[128]", arg68_1: "f32[256, 64]", arg69_1: "f32[64, 128]", arg70_1: "f32[64]", arg71_1: "f32[64]", arg72_1: "i64[13, 7]", arg73_1: "i64[13, 7]"):
     # File: /home/ilyas/transformers/.docker/lib/python3.10/site-packages/torch/nn/modules/sparse.py:192 in forward, code: return F.embedding(
    embedding: "f32[13, 7, 64]" = torch.ops.aten.embedding.default(arg0_1, arg72_1, 0);  arg0_1 = arg72_1 = None
    
     # File: /home/ilyas/transformers/src/transformers/models/zamba/modeling_zamba.py:924 in forward, code: original_hidden_states = torch.clone(inputs_embeds)
    clone: "f32[13, 7, 64]" = torch.ops.aten.clone.default(embedding);  clone = None
    
     # File: /home/ilyas/transformers/src/transformers/models/zamba/modeling_zamba.py:934 in forward, code: cache_position = torch.arange(hidden_states.shape[1], device=hidden_states.device)
    arange: "i64[7]" = torch.ops.aten.arange.default(7, device = device(type='cuda', index=0), pin_memory = False)
    
     # File: /home/ilyas/transformers/src/transformers/models/zamba/modeling_zamba.py:936 in forward, code: position_ids = cache_position.unsqueeze(0)
    unsqueeze: "i64[1, 7]" = torch.ops.aten.unsqueeze.default(arange, 0);  unsqueeze = None
    
     # File: /home/ilyas/transformers/src/transformers/models/zamba/modeling_zamba.py:938 in forward, code: causal_mask = self._update_causal_mask(attention_mask, inputs_embeds, cache_position)
    select: "i64[]" = torch.ops.aten.select.int(arange, 0, -1)
    add: "i64[]" = torch.ops.aten.add.Tensor(select, 1);  select = None
    item: "Sym(u0)" = torch.ops.aten.item.default(add)
    full: "f32[7, u0]" = torch.ops.aten.full.default([7, item], -3.4028234663852886e+38, dtype = torch.float32, device = device(type='cuda', index=0), pin_memory = False)
    triu: "f32[7, u0]" = torch.ops.aten.triu.default(full, 1);  full = None
    item_1: "Sym(u0)" = torch.ops.aten.item.default(add);  add = item_1 = None
    arange_1: "i64[u0]" = torch.ops.aten.arange.default(item, device = device(type='cuda', index=0), pin_memory = False);  item = None
    reshape: "i64[7, 1]" = torch.ops.aten.reshape.default(arange, [-1, 1]);  arange = None
    gt: "b8[7, u0]" = torch.ops.aten.gt.Tensor(arange_1, reshape);  arange_1 = reshape = None
    to: "b8[7, u0]" = torch.ops.aten.to.dtype(gt, torch.bool);  gt = None
    mul_: "f32[7, u0]" = torch.ops.aten.mul_.Tensor(triu, to);  to = None
    unsqueeze_1: "f32[1, 7, u0]" = torch.ops.aten.unsqueeze.default(mul_, 0);  mul_ = None
    unsqueeze_2: "f32[1, 1, 7, u0]" = torch.ops.aten.unsqueeze.default(unsqueeze_1, 1);  unsqueeze_1 = None
    sym_size_int: "Sym(u0)" = torch.ops.aten.sym_size.int(triu, 1);  triu = None
    le: "Sym(u0 <= 9223372036854775807)" = sym_size_int <= 9223372036854775807;  sym_size_int = le = None
    slice_1: "f32[1, 1, 7, u0]" = torch.ops.aten.slice.Tensor(unsqueeze_2, 3, 0, 9223372036854775807);  unsqueeze_2 = None
    expand: "f32[13, 1, 7, u0]" = torch.ops.aten.expand.default(slice_1, [13, 1, -1, -1])
    clone_1: "f32[13, 1, 7, u0]" = torch.ops.aten.clone.default(expand);  expand = None
    sym_size_int_1: "Sym(u0)" = torch.ops.aten.sym_size.int(slice_1, 3);  slice_1 = None
    ge: "Sym(u0 >= 7)" = sym_size_int_1 >= 7;  ge = None
    le_1: "Sym(u0 <= 7)" = sym_size_int_1 <= 7;  le_1 = None
    slice_2: "f32[13, 1, 7, 7]" = torch.ops.aten.slice.Tensor(clone_1, 3, 0, 7)
    eq: "b8[13, 1, 7, 7]" = torch.ops.aten.eq.Scalar(slice_2, 0.0);  slice_2 = None
    unsqueeze_3: "i64[13, 1, 7]" = torch.ops.aten.unsqueeze.default(arg73_1, 1)
    unsqueeze_4: "i64[13, 1, 1, 7]" = torch.ops.aten.unsqueeze.default(unsqueeze_3, 2);  unsqueeze_3 = None
    eq_1: "b8[13, 1, 1, 7]" = torch.ops.aten.eq.Scalar(unsqueeze_4, 0.0);  unsqueeze_4 = None
    mul: "b8[13, 1, 7, 7]" = torch.ops.aten.mul.Tensor(eq, eq_1);  eq = eq_1 = None
    le_2: "Sym(u0 <= 7)" = sym_size_int_1 <= 7;  le_2 = None
    slice_3: "f32[13, 1, 7, 7]" = torch.ops.aten.slice.Tensor(clone_1, 3, 0, 7)
    masked_fill: "f32[13, 1, 7, 7]" = torch.ops.aten.masked_fill.Scalar(slice_3, mul, -3.4028234663852886e+38);  slice_3 = mul = None
    le_3: "Sym(u0 <= 7)" = sym_size_int_1 <= 7;  sym_size_int_1 = le_3 = None
    slice_4: "f32[13, 1, 7, 7]" = torch.ops.aten.slice.Tensor(clone_1, 3, 0, 7);  clone_1 = None
    copy_: "f32[13, 1, 7, 7]" = torch.ops.aten.copy_.default(slice_4, masked_fill);  slice_4 = masked_fill = copy_ = None
    
     # File: /home/ilyas/transformers/src/transformers/models/zamba/modeling_zamba.py:75 in forward, code: hidden_states = hidden_states.to(torch.float32)
    to_1: "f32[13, 7, 64]" = torch.ops.aten.to.dtype(embedding, torch.float32);  embedding = None
    
     # File: /home/ilyas/transformers/src/transformers/models/zamba/modeling_zamba.py:76 in forward, code: variance = hidden_states.pow(2).mean(-1, keepdim=True)
    pow_1: "f32[13, 7, 64]" = torch.ops.aten.pow.Tensor_Scalar(to_1, 2)
    mean: "f32[13, 7, 1]" = torch.ops.aten.mean.dim(pow_1, [-1], True);  pow_1 = None
    
     # File: /home/ilyas/transformers/src/transformers/models/zamba/modeling_zamba.py:77 in forward, code: hidden_states = hidden_states * torch.rsqrt(variance + self.variance_epsilon)
    add_1: "f32[13, 7, 1]" = torch.ops.aten.add.Tensor(mean, 1e-05);  mean = None
    rsqrt: "f32[13, 7, 1]" = torch.ops.aten.rsqrt.default(add_1);  add_1 = None
    mul_1: "f32[13, 7, 64]" = torch.ops.aten.mul.Tensor(to_1, rsqrt);  to_1 = rsqrt = None
    
     # File: /home/ilyas/transformers/src/transformers/models/zamba/modeling_zamba.py:78 in forward, code: return self.weight * hidden_states.to(input_dtype)
    to_2: "f32[13, 7, 64]" = torch.ops.aten.to.dtype(mul_1, torch.float32);  mul_1 = None
    mul_2: "f32[13, 7, 64]" = torch.ops.aten.mul.Tensor(arg10_1, to_2);  arg10_1 = to_2 = None
    
     # File: /home/ilyas/transformers/.docker/lib/python3.10/site-packages/torch/nn/modules/linear.py:134 in forward, code: return F.linear(input, self.weight, self.bias)
    linear: "f32[13, 7, 256]" = torch.ops.aten.linear.default(mul_2, arg8_1);  mul_2 = arg8_1 = None
    
     # File: /home/ilyas/transformers/src/transformers/models/zamba/modeling_zamba.py:561 in forward, code: return self.slow_forward(hidden_states, cache_params, attention_mask=attention_mask)
    transpose: "f32[13, 256, 7]" = torch.ops.aten.transpose.int(linear, 1, 2);  linear = None
    view: "f32[13, 128, 2, 7]" = torch.ops.aten.view.default(transpose, [13, -1, 2, 7]);  transpose = None
    chunk = torch.ops.aten.chunk.default(view, 2, 2);  view = None
    getitem: "f32[13, 128, 1, 7]" = chunk[0]
    getitem_1: "f32[13, 128, 1, 7]" = chunk[1];  chunk = None
    squeeze: "f32[13, 128, 7]" = torch.ops.aten.squeeze.dim(getitem, 2);  getitem = None
    contiguous: "f32[13, 128, 7]" = torch.ops.aten.contiguous.default(squeeze);  squeeze = contiguous = None
    squeeze_1: "f32[13, 128, 7]" = torch.ops.aten.squeeze.dim(getitem_1, 2);  getitem_1 = None
    reshape_1: "f32[13, 2, 64, 7]" = torch.ops.aten.reshape.default(squeeze_1, [13, 2, -1, 7]);  squeeze_1 = None
    transpose_1: "f32[2, 13, 64, 7]" = torch.ops.aten.transpose.int(reshape_1, 0, 1);  reshape_1 = transpose_1 = None
    zeros: "f32[13, 2, 64, 16]" = torch.ops.aten.zeros.default([13, 2, 64, 16], dtype = torch.float32, device = device(type='cuda', index=0), pin_memory = False);  zeros = None
    eq_2: "b8[13, 7]" = torch.ops.aten.eq.Scalar(arg73_1, 1);  arg73_1 = None
    all_1: "b8[]" = torch.ops.aten.all.default(eq_2);  eq_2 = None
    ne: "b8[]" = torch.ops.aten.ne.Scalar(all_1, 0);  all_1 = None
    item_2: "Sym(Eq(u1, 1))" = torch.ops.aten.item.default(ne);  ne = item_2 = None
    
___________________ TimmBackboneModelTest.test_torch_export ____________________
[gw56] linux -- Python 3.10.12 /home/ilyas/transformers/.docker/bin/python3

response = <Response [429 Too Many Requests]>, endpoint_name = None

    def hf_raise_for_status(response: httpx.Response, endpoint_name: Optional[str] = None) -> None:
        """
        Internal version of `response.raise_for_status()` that will refine a potential HTTPError.
        Raised exception will be an instance of [`~errors.HfHubHTTPError`].
    
        This helper is meant to be the unique method to raise_for_status when making a call to the Hugging Face Hub.
    
        Args:
            response (`Response`):
                Response from the server.
            endpoint_name (`str`, *optional*):
                Name of the endpoint that has been called. If provided, the error message will be more complete.
    
        > [!WARNING]
        > Raises when the request has failed:
        >
        >     - [`~utils.RepositoryNotFoundError`]
        >         If the repository to download from cannot be found. This may be because it
        >         doesn't exist, because `repo_type` is not set correctly, or because the repo
        >         is `private` and you do not have access.
        >     - [`~utils.GatedRepoError`]
        >         If the repository exists but is gated and the user is not on the authorized
        >         list.
        >     - [`~utils.RevisionNotFoundError`]
        >         If the repository exists but the revision couldn't be found.
        >     - [`~utils.EntryNotFoundError`]
        >         If the repository exists but the entry (e.g. the requested file) couldn't be
        >         find.
        >     - [`~utils.BadRequestError`]
        >         If request failed with a HTTP 400 BadRequest error.
        >     - [`~utils.HfHubHTTPError`]
        >         If request failed for a reason not listed above.
        """
        try:
>           response.raise_for_status()

.docker/lib/python3.10/site-packages/huggingface_hub/utils/_http.py:553: 
_ _ _ _ _ _ _ _ _ _ _ _ _ _ _ _ _ _ _ _ _ _ _ _ _ _ _ _ _ _ _ _ _ _ _ _ _ _ _ _ 

self = <Response [429 Too Many Requests]>

    def raise_for_status(self) -> Response:
        """
        Raise the `HTTPStatusError` if one occurred.
        """
        request = self._request
        if request is None:
            raise RuntimeError(
                "Cannot call `raise_for_status` as the request "
                "instance has not been set on this response."
            )
    
        if self.is_success:
            return self
    
        if self.has_redirect_location:
            message = (
                "{error_type} '{0.status_code} {0.reason_phrase}' for url '{0.url}'\n"
                "Redirect location: '{0.headers[location]}'\n"
                "For more information check: https://developer.mozilla.org/en-US/docs/Web/HTTP/Status/{0.status_code}"
            )
        else:
            message = (
                "{error_type} '{0.status_code} {0.reason_phrase}' for url '{0.url}'\n"
                "For more information check: https://developer.mozilla.org/en-US/docs/Web/HTTP/Status/{0.status_code}"
            )
    
        status_class = self.status_code // 100
        error_types = {
            1: "Informational response",
            3: "Redirect response",
            4: "Client error",
            5: "Server error",
        }
        error_type = error_types.get(status_class, "Invalid status code")
        message = message.format(self, error_type=error_type)
>       raise HTTPStatusError(message, request=request, response=self)
E       httpx.HTTPStatusError: Client error '429 Too Many Requests' for url 'https://huggingface.co/api/models/timm/resnet18.a1_in1k/xet-read-token/491b427b45c94c7fb0e78b5474cc919aff584bbf'
E       For more information check: https://developer.mozilla.org/en-US/docs/Web/HTTP/Status/429

.docker/lib/python3.10/site-packages/httpx/_models.py:763: HTTPStatusError

The above exception was the direct cause of the following exception:

self = <tests.models.timm_backbone.test_modeling_timm_backbone.TimmBackboneModelTest testMethod=test_torch_export>
atol = 0.0001, rtol = 0.0001

    @slow
    @require_torch_greater_or_equal("2.5")
    @pytest.mark.torch_export_test
    def test_torch_export(self, atol=1e-4, rtol=1e-4):
        """
        Test if model can be exported with torch.export.export()
    
        Args:
            atol (`float`, *optional*, defaults to 1e-4): absolute tolerance for output comparison
            rtol (`float`, *optional*, defaults to 1e-4): relative tolerance for output comparison
        """
    
        exporter = DynamoExporter(export_config=DynamoConfig())
    
        for model_class in self.all_model_classes:
            with self.subTest(model_class.__name__):
                if hasattr(self.model_tester, "prepare_config_and_inputs_for_model_class"):
                    config, inputs_dict = self.model_tester.prepare_config_and_inputs_for_model_class(model_class)
                else:
                    config, inputs_dict = self.model_tester.prepare_config_and_inputs_for_common()
                inputs_dict = self._prepare_for_class(inputs_dict, model_class)
>               model = model_class(config).eval().to(torch_device)

tests/test_modeling_common.py:3516: 
_ _ _ _ _ _ _ _ _ _ _ _ _ _ _ _ _ _ _ _ _ _ _ _ _ _ _ _ _ _ _ _ _ _ _ _ _ _ _ _ 
src/transformers/models/timm_backbone/modeling_timm_backbone.py:65: in __init__
    self._backbone = timm.create_model(
.docker/lib/python3.10/site-packages/timm/models/_factory.py:138: in create_model
    model = create_fn(
.docker/lib/python3.10/site-packages/timm/models/resnet.py:1444: in resnet18
    return _create_resnet('resnet18', pretrained, **dict(model_args, **kwargs))
.docker/lib/python3.10/site-packages/timm/models/resnet.py:740: in _create_resnet
    return build_model_with_cfg(ResNet, variant, pretrained, **kwargs)
.docker/lib/python3.10/site-packages/timm/models/_builder.py:457: in build_model_with_cfg
    load_pretrained(
.docker/lib/python3.10/site-packages/timm/models/_builder.py:226: in load_pretrained
    state_dict = load_state_dict_from_hf(pretrained_loc, weights_only=True, cache_dir=cache_dir)
.docker/lib/python3.10/site-packages/timm/models/_hub.py:229: in load_state_dict_from_hf
    cached_safe_file = hf_hub_download(
.docker/lib/python3.10/site-packages/huggingface_hub/utils/_validators.py:89: in _inner_fn
    return fn(*args, **kwargs)
.docker/lib/python3.10/site-packages/huggingface_hub/file_download.py:1007: in hf_hub_download
    return _hf_hub_download_to_cache_dir(
.docker/lib/python3.10/site-packages/huggingface_hub/file_download.py:1200: in _hf_hub_download_to_cache_dir
    _download_to_tmp_and_move(
.docker/lib/python3.10/site-packages/huggingface_hub/file_download.py:1791: in _download_to_tmp_and_move
    xet_get(
.docker/lib/python3.10/site-packages/huggingface_hub/file_download.py:535: in xet_get
    connection_info = refresh_xet_connection_info(file_data=xet_file_data, headers=headers)
.docker/lib/python3.10/site-packages/huggingface_hub/utils/_validators.py:89: in _inner_fn
    return fn(*args, **kwargs)
.docker/lib/python3.10/site-packages/huggingface_hub/utils/_xet.py:122: in refresh_xet_connection_info
    return _fetch_xet_connection_info_with_url(file_data.refresh_route, headers)
.docker/lib/python3.10/site-packages/huggingface_hub/utils/_validators.py:89: in _inner_fn
    return fn(*args, **kwargs)
.docker/lib/python3.10/site-packages/huggingface_hub/utils/_xet.py:204: in _fetch_xet_connection_info_with_url
    hf_raise_for_status(resp)
_ _ _ _ _ _ _ _ _ _ _ _ _ _ _ _ _ _ _ _ _ _ _ _ _ _ _ _ _ _ _ _ _ _ _ _ _ _ _ _ 

response = <Response [429 Too Many Requests]>, endpoint_name = None

    def hf_raise_for_status(response: httpx.Response, endpoint_name: Optional[str] = None) -> None:
        """
        Internal version of `response.raise_for_status()` that will refine a potential HTTPError.
        Raised exception will be an instance of [`~errors.HfHubHTTPError`].
    
        This helper is meant to be the unique method to raise_for_status when making a call to the Hugging Face Hub.
    
        Args:
            response (`Response`):
                Response from the server.
            endpoint_name (`str`, *optional*):
                Name of the endpoint that has been called. If provided, the error message will be more complete.
    
        > [!WARNING]
        > Raises when the request has failed:
        >
        >     - [`~utils.RepositoryNotFoundError`]
        >         If the repository to download from cannot be found. This may be because it
        >         doesn't exist, because `repo_type` is not set correctly, or because the repo
        >         is `private` and you do not have access.
        >     - [`~utils.GatedRepoError`]
        >         If the repository exists but is gated and the user is not on the authorized
        >         list.
        >     - [`~utils.RevisionNotFoundError`]
        >         If the repository exists but the revision couldn't be found.
        >     - [`~utils.EntryNotFoundError`]
        >         If the repository exists but the entry (e.g. the requested file) couldn't be
        >         find.
        >     - [`~utils.BadRequestError`]
        >         If request failed with a HTTP 400 BadRequest error.
        >     - [`~utils.HfHubHTTPError`]
        >         If request failed for a reason not listed above.
        """
        try:
            response.raise_for_status()
        except httpx.HTTPStatusError as e:
            if response.status_code // 100 == 3:
                return  # Do not raise on redirects to stay consistent with `requests`
    
            error_code = response.headers.get("X-Error-Code")
            error_message = response.headers.get("X-Error-Message")
    
            if error_code == "RevisionNotFound":
                message = f"{response.status_code} Client Error." + "\n\n" + f"Revision Not Found for url: {response.url}."
                raise _format(RevisionNotFoundError, message, response) from e
    
            elif error_code == "EntryNotFound":
                message = f"{response.status_code} Client Error." + "\n\n" + f"Entry Not Found for url: {response.url}."
                raise _format(RemoteEntryNotFoundError, message, response) from e
    
            elif error_code == "GatedRepo":
                message = (
                    f"{response.status_code} Client Error." + "\n\n" + f"Cannot access gated repo for url {response.url}."
                )
                raise _format(GatedRepoError, message, response) from e
    
            elif error_message == "Access to this resource is disabled.":
                message = (
                    f"{response.status_code} Client Error."
                    + "\n\n"
                    + f"Cannot access repository for url {response.url}."
                    + "\n"
                    + "Access to this resource is disabled."
                )
                raise _format(DisabledRepoError, message, response) from e
    
            elif error_code == "RepoNotFound" or (
                response.status_code == 401
                and error_message != "Invalid credentials in Authorization header"
                and response.request is not None
                and response.request.url is not None
                and REPO_API_REGEX.search(str(response.request.url)) is not None
            ):
                # 401 is misleading as it is returned for:
                #    - private and gated repos if user is not authenticated
                #    - missing repos
                # => for now, we process them as `RepoNotFound` anyway.
                # See https://gist.github.com/Wauplin/46c27ad266b15998ce56a6603796f0b9
                message = (
                    f"{response.status_code} Client Error."
                    + "\n\n"
                    + f"Repository Not Found for url: {response.url}."
                    + "\nPlease make sure you specified the correct `repo_id` and"
                    " `repo_type`.\nIf you are trying to access a private or gated repo,"
                    " make sure you are authenticated. For more details, see"
                    " https://huggingface.co/docs/huggingface_hub/authentication"
                )
                raise _format(RepositoryNotFoundError, message, response) from e
    
            elif response.status_code == 400:
                message = (
                    f"\n\nBad request for {endpoint_name} endpoint:" if endpoint_name is not None else "\n\nBad request:"
                )
                raise _format(BadRequestError, message, response) from e
    
            elif response.status_code == 403:
                message = (
                    f"\n\n{response.status_code} Forbidden: {error_message}."
                    + f"\nCannot access content at: {response.url}."
                    + "\nMake sure your token has the correct permissions."
                )
                raise _format(HfHubHTTPError, message, response) from e
    
            elif response.status_code == 416:
                range_header = response.request.headers.get("Range")
                message = f"{e}. Requested range: {range_header}. Content-Range: {response.headers.get('Content-Range')}."
                raise _format(HfHubHTTPError, message, response) from e
    
            # Convert `HTTPError` into a `HfHubHTTPError` to display request information
            # as well (request id and/or server error message)
>           raise _format(HfHubHTTPError, str(e), response) from e
E           huggingface_hub.errors.HfHubHTTPError: Client error '429 Too Many Requests' for url 'https://huggingface.co/api/models/timm/resnet18.a1_in1k/xet-read-token/491b427b45c94c7fb0e78b5474cc919aff584bbf' (Request ID: Root=1-692010bd-56e663ad1d7ebbd118bb822d;1fc4fe4d-9ae0-4ae8-b8ba-6367a620a820)
E           For more information check: https://developer.mozilla.org/en-US/docs/Web/HTTP/Status/429
E           
E           We had to rate limit your IP (85.118.59.141). To continue using our service, create a HF account or login to your existing account, and make sure you pass a HF_TOKEN if you're using the API.

.docker/lib/python3.10/site-packages/huggingface_hub/utils/_http.py:629: HfHubHTTPError
----------------------------- Captured stderr call -----------------------------
Test failed with Client error '429 Too Many Requests' for url 'https://huggingface.co/api/models/timm/resnet18.a1_in1k/xet-read-token/491b427b45c94c7fb0e78b5474cc919aff584bbf' (Request ID: Root=1-692010b3-778c49fe618e86ff49a6ba72;e8bc5945-624f-4e58-8637-4fff2f726b4f)
For more information check: https://developer.mozilla.org/en-US/docs/Web/HTTP/Status/429

We had to rate limit your IP (85.118.59.141). To continue using our service, create a HF account or login to your existing account, and make sure you pass a HF_TOKEN if you're using the API. at try 1/5 as it couldn't connect to the specified Hub repository.
Test failed with Client error '429 Too Many Requests' for url 'https://huggingface.co/api/models/timm/resnet18.a1_in1k/xet-read-token/491b427b45c94c7fb0e78b5474cc919aff584bbf' (Request ID: Root=1-692010b6-4319c39b5a1677c5467a6dea;6143f425-5f42-4c3d-87e9-5ee473074b74)
For more information check: https://developer.mozilla.org/en-US/docs/Web/HTTP/Status/429

We had to rate limit your IP (85.118.59.141). To continue using our service, create a HF account or login to your existing account, and make sure you pass a HF_TOKEN if you're using the API. at try 2/5 as it couldn't connect to the specified Hub repository.
Test failed with Client error '429 Too Many Requests' for url 'https://huggingface.co/api/models/timm/resnet18.a1_in1k/xet-read-token/491b427b45c94c7fb0e78b5474cc919aff584bbf' (Request ID: Root=1-692010b8-1d1a59d26f8ec58a317b8195;bfd052f4-7c3c-475a-a5c6-0d7388cade96)
For more information check: https://developer.mozilla.org/en-US/docs/Web/HTTP/Status/429

We had to rate limit your IP (85.118.59.141). To continue using our service, create a HF account or login to your existing account, and make sure you pass a HF_TOKEN if you're using the API. at try 3/5 as it couldn't connect to the specified Hub repository.
Test failed with Client error '429 Too Many Requests' for url 'https://huggingface.co/api/models/timm/resnet18.a1_in1k/xet-read-token/491b427b45c94c7fb0e78b5474cc919aff584bbf' (Request ID: Root=1-692010ba-670ee34f171063567466e823;f8470f6f-b47c-4f82-a5b2-51504b4dd5af)
For more information check: https://developer.mozilla.org/en-US/docs/Web/HTTP/Status/429

We had to rate limit your IP (85.118.59.141). To continue using our service, create a HF account or login to your existing account, and make sure you pass a HF_TOKEN if you're using the API. at try 4/5 as it couldn't connect to the specified Hub repository.
=============================== warnings summary ===============================
tests/test_modeling_common.py:3549: 64 warnings
  /home/ilyas/transformers/tests/test_modeling_common.py:3549: PytestUnknownMarkWarning: Unknown pytest.mark.onnx_export_test - is this a typo?  You can register custom marks to avoid this warning - for details, see https://docs.pytest.org/en/stable/how-to/mark.html
    @pytest.mark.onnx_export_test

<frozen importlib._bootstrap>:241: 128 warnings
  <frozen importlib._bootstrap>:241: DeprecationWarning: builtin type SwigPyPacked has no __module__ attribute

<frozen importlib._bootstrap>:241: 128 warnings
  <frozen importlib._bootstrap>:241: DeprecationWarning: builtin type SwigPyObject has no __module__ attribute

<frozen importlib._bootstrap>:241: 64 warnings
  <frozen importlib._bootstrap>:241: DeprecationWarning: builtin type swigvarlink has no __module__ attribute

tests/models/funnel/test_modeling_funnel.py::FunnelBaseModelTest::test_torch_export
tests/models/funnel/test_modeling_funnel.py::FunnelModelTest::test_torch_export
  /home/ilyas/transformers/src/transformers/models/funnel/modeling_funnel.py:245: UserWarning: Using a non-tuple sequence for multidimensional indexing is deprecated and will be changed in pytorch 2.9; use x[tuple(seq)] instead of x[seq]. In pytorch 2.9 this will be interpreted as tensor index, x[torch.tensor(seq)], which will result either in an error or a different result (Triggered internally at /pytorch/torch/csrc/autograd/python_variable_indexing.cpp:345.)
    tensor = torch.cat([tensor[cls_slice], tensor], axis=axis)

tests/models/funnel/test_modeling_funnel.py::FunnelBaseModelTest::test_torch_export
tests/models/funnel/test_modeling_funnel.py::FunnelModelTest::test_torch_export
  /home/ilyas/transformers/src/transformers/models/funnel/modeling_funnel.py:246: UserWarning: Using a non-tuple sequence for multidimensional indexing is deprecated and will be changed in pytorch 2.9; use x[tuple(seq)] instead of x[seq]. In pytorch 2.9 this will be interpreted as tensor index, x[torch.tensor(seq)], which will result either in an error or a different result (Triggered internally at /pytorch/torch/csrc/autograd/python_variable_indexing.cpp:345.)
    return tensor[enc_slice]

tests/models/flava/test_modeling_flava.py: 4 warnings
tests/models/bros/test_modeling_bros.py: 4 warnings
tests/models/layoutlmv3/test_modeling_layoutlmv3.py: 4 warnings
  /home/ilyas/transformers/src/transformers/modeling_utils.py:1421: FutureWarning: The `device` argument is deprecated and will be removed in v5 of Transformers.
    warnings.warn(

tests/models/bloom/test_modeling_bloom.py::BloomModelTest::test_torch_export
  /home/ilyas/transformers/src/transformers/models/bloom/modeling_bloom.py:504: FutureWarning: `position_ids` have no functionality in BLOOM and will be removed in v5.0.0. You can safely ignore passing `position_ids`.
    warnings.warn(

tests/models/led/test_modeling_led.py::LEDModelTest::test_torch_export
  /home/ilyas/transformers/src/transformers/models/led/modeling_led.py:2114: FutureWarning: The `transformers.LEDForSequenceClassification` class is deprecated and will be removed in version 5 of Transformers. No actual method were provided in the original paper on how to perform sequence classification.
    warnings.warn(

tests/models/oneformer/test_modeling_oneformer.py::OneFormerModelTest::test_torch_export
  /home/ilyas/transformers/.docker/lib/python3.10/site-packages/torch/functional.py:505: UserWarning: torch.meshgrid: in an upcoming release, it will be required to pass the indexing argument. (Triggered internally at /pytorch/aten/src/ATen/native/TensorShape.cpp:4317.)
    return _VF.meshgrid(tensors, **kwargs)  # type: ignore[attr-defined]

tests/models/modernbert/test_modeling_modernbert.py::ModernBertModelTest::test_torch_export
  /home/ilyas/transformers/.docker/lib/python3.10/site-packages/torch/_inductor/compile_fx.py:312: UserWarning: TensorFloat32 tensor cores for float32 matrix multiplication available but not enabled. Consider setting `torch.set_float32_matmul_precision('high')` for better performance.
    warnings.warn(

tests/models/wav2vec2/test_modeling_wav2vec2.py::Wav2Vec2RobustModelTest::test_torch_export
tests/models/wav2vec2/test_modeling_wav2vec2.py::Wav2Vec2ModelTest::test_torch_export
  /home/ilyas/transformers/src/transformers/models/wav2vec2/modeling_wav2vec2.py:1647: FutureWarning: The class `Wav2Vec2ForMaskedLM` is deprecated. Please use `Wav2Vec2ForCTC` instead.
    warnings.warn(

tests/models/wavlm/test_modeling_wavlm.py::WavLMModelTest::test_torch_export
tests/models/wavlm/test_modeling_wavlm.py::WavLMModelTest::test_torch_export
tests/models/wavlm/test_modeling_wavlm.py::WavLMModelTest::test_torch_export
tests/models/wavlm/test_modeling_wavlm.py::WavLMModelTest::test_torch_export
  /home/ilyas/transformers/.docker/lib/python3.10/site-packages/torch/nn/functional.py:6044: UserWarning: Support for mismatched key_padding_mask and attn_mask is deprecated. Use same type for both instead.
    warnings.warn(

tests/models/timesfm/test_modeling_timesfm.py::TimesFmModelTest::test_torch_export
  /home/ilyas/transformers/src/transformers/models/timesfm/modeling_timesfm.py:641: UserWarning: To copy construct from a tensor, it is recommended to use sourceTensor.detach().clone() or sourceTensor.detach().clone().requires_grad_(True), rather than torch.tensor(sourceTensor).
    torch.tensor(freq[: len(inputs)], dtype=torch.int32).reshape(-1, 1),

tests/models/timesfm/test_modeling_timesfm.py::TimesFmModelTest::test_torch_export
  /home/ilyas/transformers/.docker/lib/python3.10/site-packages/torch/_export/non_strict_utils.py:1066: UserWarning: To copy construct from a tensor, it is recommended to use sourceTensor.detach().clone() or sourceTensor.detach().clone().requires_grad_(True), rather than torch.tensor(sourceTensor).
    return func(*args, **kwargs)

-- Docs: https://docs.pytest.org/en/stable/how-to/capture-warnings.html
=========================== short test summary info ============================
FAILED tests/models/eomt/test_modeling_eomt.py::EomtForUniversalSegmentationTest::test_torch_export - torch.fx.experimental.symbolic_shapes.GuardOnDataDependentSymNode: Could not guard on data-dependent expression Eq(u0, 1) (unhinted: Eq(u0, 1)).  (Size-like symbols: none)

consider using data-dependent friendly APIs such as guard_or_false, guard_or_true and statically_known_trueCaused by: (_export/non_strict_utils.py:1066 in __torch_function__)
For more information, run with TORCH_LOGS="dynamic"
For extended logs when we create symbols, also add TORCHDYNAMO_EXTENDED_DEBUG_CREATE_SYMBOL="u0"
If you suspect the guard was triggered from C++, add TORCHDYNAMO_EXTENDED_DEBUG_CPP=1
For more debugging help, see https://docs.google.com/document/d/1HSuTTVvYH1pTew89Rtpeu84Ht3nQEFTYhAX3Ypa_xJs/edit?usp=sharing

For C++ stack trace, run with TORCHDYNAMO_EXTENDED_DEBUG_CPP=1

The following call raised this error:
  File "/home/ilyas/transformers/src/transformers/models/eomt/modeling_eomt.py", line 1215, in _disable_attention_mask
    if prob < 1:


The error above occurred when calling torch.export.export. If you would like to view some more information about this error, and get a list of all other errors that may occur in your export call, you can replace your `export()` call with `draft_export()`.
FAILED tests/models/flava/test_modeling_flava.py::FlavaForPreTrainingTest::test_torch_export - AttributeError: 'Tensor' object has no attribute 'ize'
FAILED tests/models/mllama/test_modeling_mllama.py::MllamaForConditionalGenerationModelTest::test_torch_export - RuntimeError: The expanded size of the tensor (1808) must match the existing size (904) at non-singleton dimension 3.  Target sizes: [3, 4, 7, 1808].  Tensor sizes: [3, 1, 7, 904]
FAILED tests/models/clvp/test_modeling_clvp.py::ClvpModelForConditionalGenerationTest::test_torch_export - huggingface_hub.errors.HfHubHTTPError: Client error '429 Too Many Requests' for url 'https://huggingface.co/api/datasets/hf-internal-testing/librispeech_asr_dummy/revision/5be91486e11a2d616f4ec5db8d3fd248585ac07a' (Request ID: Root=1-6920109c-5f2b8cd538a184b873bf8590;5f2b8c49-34b1-480b-9a4e-8fb7917e18b6)
For more information check: https://developer.mozilla.org/en-US/docs/Web/HTTP/Status/429

We had to rate limit your IP (85.118.59.141). To continue using our service, create a HF account or login to your existing account, and make sure you pass a HF_TOKEN if you're using the API.
FAILED tests/models/videomae/test_modeling_videomae.py::VideoMAEModelTest::test_torch_export - torch.fx.experimental.symbolic_shapes.GuardOnDataDependentSymNode: Could not guard on data-dependent expression u5 > 0 (unhinted: u5 > 0).  (Size-like symbols: u5)

consider using data-dependent friendly APIs such as guard_or_false, guard_or_true and statically_known_trueCaused by: (src/transformers/models/videomae/modeling_videomae.py:505 in forward)
For more information, run with TORCH_LOGS="dynamic"
For extended logs when we create symbols, also add TORCHDYNAMO_EXTENDED_DEBUG_CREATE_SYMBOL="u5"
If you suspect the guard was triggered from C++, add TORCHDYNAMO_EXTENDED_DEBUG_CPP=1
For more debugging help, see https://docs.google.com/document/d/1HSuTTVvYH1pTew89Rtpeu84Ht3nQEFTYhAX3Ypa_xJs/edit?usp=sharing

For C++ stack trace, run with TORCHDYNAMO_EXTENDED_DEBUG_CPP=1

The error above occurred when calling torch.export.export. If you would like to view some more information about this error, and get a list of all other errors that may occur in your export call, you can replace your `export()` call with `draft_export()`.
FAILED tests/models/zamba/test_modeling_zamba.py::ZambaModelTest::test_torch_export - torch.fx.experimental.symbolic_shapes.GuardOnDataDependentSymNode: Could not guard on data-dependent expression Eq(u1, 1) (unhinted: Eq(u1, 1)).  (Size-like symbols: none)

consider using data-dependent friendly APIs such as guard_or_false, guard_or_true and statically_known_trueCaused by: (_export/non_strict_utils.py:1066 in __torch_function__)
For more information, run with TORCH_LOGS="dynamic"
For extended logs when we create symbols, also add TORCHDYNAMO_EXTENDED_DEBUG_CREATE_SYMBOL="u1"
If you suspect the guard was triggered from C++, add TORCHDYNAMO_EXTENDED_DEBUG_CPP=1
For more debugging help, see https://docs.google.com/document/d/1HSuTTVvYH1pTew89Rtpeu84Ht3nQEFTYhAX3Ypa_xJs/edit?usp=sharing

For C++ stack trace, run with TORCHDYNAMO_EXTENDED_DEBUG_CPP=1

The following call raised this error:
  File "/home/ilyas/transformers/src/transformers/models/zamba/modeling_zamba.py", line 508, in slow_forward
    if attention_mask is not None and not torch.all(attention_mask == 1):


The error above occurred when calling torch.export.export. If you would like to view some more information about this error, and get a list of all other errors that may occur in your export call, you can replace your `export()` call with `draft_export()`.
FAILED tests/models/timm_backbone/test_modeling_timm_backbone.py::TimmBackboneModelTest::test_torch_export - huggingface_hub.errors.HfHubHTTPError: Client error '429 Too Many Requests' for url 'https://huggingface.co/api/models/timm/resnet18.a1_in1k/xet-read-token/491b427b45c94c7fb0e78b5474cc919aff584bbf' (Request ID: Root=1-692010bd-56e663ad1d7ebbd118bb822d;1fc4fe4d-9ae0-4ae8-b8ba-6367a620a820)
For more information check: https://developer.mozilla.org/en-US/docs/Web/HTTP/Status/429

We had to rate limit your IP (85.118.59.141). To continue using our service, create a HF account or login to your existing account, and make sure you pass a HF_TOKEN if you're using the API.
====== 7 failed, 466 passed, 4 skipped, 412 warnings in 158.34s (0:02:38) ======
