{"format": "torch", "nodes": [{"name": "wav2vec2", "id": 140163135785472, "class_name": "Wav2Vec2Model(\n  (feature_extractor): Wav2Vec2FeatureExtractor(\n    (conv_layers): ModuleList(\n      (0): Wav2Vec2LayerNormConvLayer(\n        (conv): Conv1d(1, 512, kernel_size=(10,), stride=(5,), bias=False)\n        (layer_norm): LayerNorm((512,), eps=1e-05, elementwise_affine=True)\n      )\n      (1): Wav2Vec2LayerNormConvLayer(\n        (conv): Conv1d(512, 512, kernel_size=(3,), stride=(2,), bias=False)\n        (layer_norm): LayerNorm((512,), eps=1e-05, elementwise_affine=True)\n      )\n      (2): Wav2Vec2LayerNormConvLayer(\n        (conv): Conv1d(512, 512, kernel_size=(3,), stride=(2,), bias=False)\n        (layer_norm): LayerNorm((512,), eps=1e-05, elementwise_affine=True)\n      )\n      (3): Wav2Vec2LayerNormConvLayer(\n        (conv): Conv1d(512, 512, kernel_size=(3,), stride=(2,), bias=False)\n        (layer_norm): LayerNorm((512,), eps=1e-05, elementwise_affine=True)\n      )\n      (4): Wav2Vec2LayerNormConvLayer(\n        (conv): Conv1d(512, 512, kernel_size=(3,), stride=(2,), bias=False)\n        (layer_norm): LayerNorm((512,), eps=1e-05, elementwise_affine=True)\n      )\n      (5): Wav2Vec2LayerNormConvLayer(\n        (conv): Conv1d(512, 512, kernel_size=(2,), stride=(2,), bias=False)\n        (layer_norm): LayerNorm((512,), eps=1e-05, elementwise_affine=True)\n      )\n      (6): Wav2Vec2LayerNormConvLayer(\n        (conv): Conv1d(512, 512, kernel_size=(2,), stride=(2,), bias=False)\n        (layer_norm): LayerNorm((512,), eps=1e-05, elementwise_affine=True)\n      )\n    )\n  )\n  (feature_projection): Wav2Vec2FeatureProjection(\n    (layer_norm): LayerNorm((512,), eps=1e-05, elementwise_affine=True)\n    (projection): Linear(in_features=512, out_features=768, bias=True)\n    (dropout): Dropout(p=0.1, inplace=False)\n  )\n  (encoder): Wav2Vec2EncoderStableLayerNorm(\n    (pos_conv_embed): Wav2Vec2PositionalConvEmbedding(\n      (conv): Conv1d(768, 768, kernel_size=(128,), stride=(1,), padding=(64,), groups=16)\n      (padding): Wav2Vec2SamePadLayer()\n    )\n    (layer_norm): LayerNorm((768,), eps=1e-05, elementwise_affine=True)\n    (dropout): Dropout(p=0.1, inplace=False)\n    (layers): ModuleList(\n      (0): Wav2Vec2EncoderLayerStableLayerNorm(\n        (attention): Wav2Vec2Attention(\n          (k_proj): Linear(in_features=768, out_features=768, bias=True)\n          (v_proj): Linear(in_features=768, out_features=768, bias=True)\n          (q_proj): Linear(in_features=768, out_features=768, bias=True)\n          (out_proj): Linear(in_features=768, out_features=768, bias=True)\n        )\n        (dropout): Dropout(p=0.1, inplace=False)\n        (layer_norm): LayerNorm((768,), eps=1e-05, elementwise_affine=True)\n        (feed_forward): Wav2Vec2FeedForward(\n          (intermediate_dropout): Dropout(p=0.0, inplace=False)\n          (intermediate_dense): Linear(in_features=768, out_features=3072, bias=True)\n          (output_dense): Linear(in_features=3072, out_features=768, bias=True)\n          (output_dropout): Dropout(p=0.1, inplace=False)\n        )\n        (final_layer_norm): LayerNorm((768,), eps=1e-05, elementwise_affine=True)\n      )\n      (1): Wav2Vec2EncoderLayerStableLayerNorm(\n        (attention): Wav2Vec2Attention(\n          (k_proj): Linear(in_features=768, out_features=768, bias=True)\n          (v_proj): Linear(in_features=768, out_features=768, bias=True)\n          (q_proj): Linear(in_features=768, out_features=768, bias=True)\n          (out_proj): Linear(in_features=768, out_features=768, bias=True)\n        )\n        (dropout): Dropout(p=0.1, inplace=False)\n        (layer_norm): LayerNorm((768,), eps=1e-05, elementwise_affine=True)\n        (feed_forward): Wav2Vec2FeedForward(\n          (intermediate_dropout): Dropout(p=0.0, inplace=False)\n          (intermediate_dense): Linear(in_features=768, out_features=3072, bias=True)\n          (output_dense): Linear(in_features=3072, out_features=768, bias=True)\n          (output_dropout): Dropout(p=0.1, inplace=False)\n        )\n        (final_layer_norm): LayerNorm((768,), eps=1e-05, elementwise_affine=True)\n      )\n      (2): Wav2Vec2EncoderLayerStableLayerNorm(\n        (attention): Wav2Vec2Attention(\n          (k_proj): Linear(in_features=768, out_features=768, bias=True)\n          (v_proj): Linear(in_features=768, out_features=768, bias=True)\n          (q_proj): Linear(in_features=768, out_features=768, bias=True)\n          (out_proj): Linear(in_features=768, out_features=768, bias=True)\n        )\n        (dropout): Dropout(p=0.1, inplace=False)\n        (layer_norm): LayerNorm((768,), eps=1e-05, elementwise_affine=True)\n        (feed_forward): Wav2Vec2FeedForward(\n          (intermediate_dropout): Dropout(p=0.0, inplace=False)\n          (intermediate_dense): Linear(in_features=768, out_features=3072, bias=True)\n          (output_dense): Linear(in_features=3072, out_features=768, bias=True)\n          (output_dropout): Dropout(p=0.1, inplace=False)\n        )\n        (final_layer_norm): LayerNorm((768,), eps=1e-05, elementwise_affine=True)\n      )\n      (3): Wav2Vec2EncoderLayerStableLayerNorm(\n        (attention): Wav2Vec2Attention(\n          (k_proj): Linear(in_features=768, out_features=768, bias=True)\n          (v_proj): Linear(in_features=768, out_features=768, bias=True)\n          (q_proj): Linear(in_features=768, out_features=768, bias=True)\n          (out_proj): Linear(in_features=768, out_features=768, bias=True)\n        )\n        (dropout): Dropout(p=0.1, inplace=False)\n        (layer_norm): LayerNorm((768,), eps=1e-05, elementwise_affine=True)\n        (feed_forward): Wav2Vec2FeedForward(\n          (intermediate_dropout): Dropout(p=0.0, inplace=False)\n          (intermediate_dense): Linear(in_features=768, out_features=3072, bias=True)\n          (output_dense): Linear(in_features=3072, out_features=768, bias=True)\n          (output_dropout): Dropout(p=0.1, inplace=False)\n        )\n        (final_layer_norm): LayerNorm((768,), eps=1e-05, elementwise_affine=True)\n      )\n      (4): Wav2Vec2EncoderLayerStableLayerNorm(\n        (attention): Wav2Vec2Attention(\n          (k_proj): Linear(in_features=768, out_features=768, bias=True)\n          (v_proj): Linear(in_features=768, out_features=768, bias=True)\n          (q_proj): Linear(in_features=768, out_features=768, bias=True)\n          (out_proj): Linear(in_features=768, out_features=768, bias=True)\n        )\n        (dropout): Dropout(p=0.1, inplace=False)\n        (layer_norm): LayerNorm((768,), eps=1e-05, elementwise_affine=True)\n        (feed_forward): Wav2Vec2FeedForward(\n          (intermediate_dropout): Dropout(p=0.0, inplace=False)\n          (intermediate_dense): Linear(in_features=768, out_features=3072, bias=True)\n          (output_dense): Linear(in_features=3072, out_features=768, bias=True)\n          (output_dropout): Dropout(p=0.1, inplace=False)\n        )\n        (final_layer_norm): LayerNorm((768,), eps=1e-05, elementwise_affine=True)\n      )\n      (5): Wav2Vec2EncoderLayerStableLayerNorm(\n        (attention): Wav2Vec2Attention(\n          (k_proj): Linear(in_features=768, out_features=768, bias=True)\n          (v_proj): Linear(in_features=768, out_features=768, bias=True)\n          (q_proj): Linear(in_features=768, out_features=768, bias=True)\n          (out_proj): Linear(in_features=768, out_features=768, bias=True)\n        )\n        (dropout): Dropout(p=0.1, inplace=False)\n        (layer_norm): LayerNorm((768,), eps=1e-05, elementwise_affine=True)\n        (feed_forward): Wav2Vec2FeedForward(\n          (intermediate_dropout): Dropout(p=0.0, inplace=False)\n          (intermediate_dense): Linear(in_features=768, out_features=3072, bias=True)\n          (output_dense): Linear(in_features=3072, out_features=768, bias=True)\n          (output_dropout): Dropout(p=0.1, inplace=False)\n        )\n        (final_layer_norm): LayerNorm((768,), eps=1e-05, elementwise_affine=True)\n      )\n      (6): Wav2Vec2EncoderLayerStableLayerNorm(\n        (attention): Wav2Vec2Attention(\n          (k_proj): Linear(in_features=768, out_features=768, bias=True)\n          (v_proj): Linear(in_features=768, out_features=768, bias=True)\n          (q_proj): Linear(in_features=768, out_features=768, bias=True)\n          (out_proj): Linear(in_features=768, out_features=768, bias=True)\n        )\n        (dropout): Dropout(p=0.1, inplace=False)\n        (layer_norm): LayerNorm((768,), eps=1e-05, elementwise_affine=True)\n        (feed_forward): Wav2Vec2FeedForward(\n          (intermediate_dropout): Dropout(p=0.0, inplace=False)\n          (intermediate_dense): Linear(in_features=768, out_features=3072, bias=True)\n          (output_dense): Linear(in_features=3072, out_features=768, bias=True)\n          (output_dropout): Dropout(p=0.1, inplace=False)\n        )\n        (final_layer_norm): LayerNorm((768,), eps=1e-05, elementwise_affine=True)\n      )\n      (7): Wav2Vec2EncoderLayerStableLayerNorm(\n        (attention): Wav2Vec2Attention(\n          (k_proj): Linear(in_features=768, out_features=768, bias=True)\n          (v_proj): Linear(in_features=768, out_features=768, bias=True)\n          (q_proj): Linear(in_features=768, out_features=768, bias=True)\n          (out_proj): Linear(in_features=768, out_features=768, bias=True)\n        )\n        (dropout): Dropout(p=0.1, inplace=False)\n        (layer_norm): LayerNorm((768,), eps=1e-05, elementwise_affine=True)\n        (feed_forward): Wav2Vec2FeedForward(\n          (intermediate_dropout): Dropout(p=0.0, inplace=False)\n          (intermediate_dense): Linear(in_features=768, out_features=3072, bias=True)\n          (output_dense): Linear(in_features=3072, out_features=768, bias=True)\n          (output_dropout): Dropout(p=0.1, inplace=False)\n        )\n        (final_layer_norm): LayerNorm((768,), eps=1e-05, elementwise_affine=True)\n      )\n      (8): Wav2Vec2EncoderLayerStableLayerNorm(\n        (attention): Wav2Vec2Attention(\n          (k_proj): Linear(in_features=768, out_features=768, bias=True)\n          (v_proj): Linear(in_features=768, out_features=768, bias=True)\n          (q_proj): Linear(in_features=768, out_features=768, bias=True)\n          (out_proj): Linear(in_features=768, out_features=768, bias=True)\n        )\n        (dropout): Dropout(p=0.1, inplace=False)\n        (layer_norm): LayerNorm((768,), eps=1e-05, elementwise_affine=True)\n        (feed_forward): Wav2Vec2FeedForward(\n          (intermediate_dropout): Dropout(p=0.0, inplace=False)\n          (intermediate_dense): Linear(in_features=768, out_features=3072, bias=True)\n          (output_dense): Linear(in_features=3072, out_features=768, bias=True)\n          (output_dropout): Dropout(p=0.1, inplace=False)\n        )\n        (final_layer_norm): LayerNorm((768,), eps=1e-05, elementwise_affine=True)\n      )\n      (9): Wav2Vec2EncoderLayerStableLayerNorm(\n        (attention): Wav2Vec2Attention(\n          (k_proj): Linear(in_features=768, out_features=768, bias=True)\n          (v_proj): Linear(in_features=768, out_features=768, bias=True)\n          (q_proj): Linear(in_features=768, out_features=768, bias=True)\n          (out_proj): Linear(in_features=768, out_features=768, bias=True)\n        )\n        (dropout): Dropout(p=0.1, inplace=False)\n        (layer_norm): LayerNorm((768,), eps=1e-05, elementwise_affine=True)\n        (feed_forward): Wav2Vec2FeedForward(\n          (intermediate_dropout): Dropout(p=0.0, inplace=False)\n          (intermediate_dense): Linear(in_features=768, out_features=3072, bias=True)\n          (output_dense): Linear(in_features=3072, out_features=768, bias=True)\n          (output_dropout): Dropout(p=0.1, inplace=False)\n        )\n        (final_layer_norm): LayerNorm((768,), eps=1e-05, elementwise_affine=True)\n      )\n      (10): Wav2Vec2EncoderLayerStableLayerNorm(\n        (attention): Wav2Vec2Attention(\n          (k_proj): Linear(in_features=768, out_features=768, bias=True)\n          (v_proj): Linear(in_features=768, out_features=768, bias=True)\n          (q_proj): Linear(in_features=768, out_features=768, bias=True)\n          (out_proj): Linear(in_features=768, out_features=768, bias=True)\n        )\n        (dropout): Dropout(p=0.1, inplace=False)\n        (layer_norm): LayerNorm((768,), eps=1e-05, elementwise_affine=True)\n        (feed_forward): Wav2Vec2FeedForward(\n          (intermediate_dropout): Dropout(p=0.0, inplace=False)\n          (intermediate_dense): Linear(in_features=768, out_features=3072, bias=True)\n          (output_dense): Linear(in_features=3072, out_features=768, bias=True)\n          (output_dropout): Dropout(p=0.1, inplace=False)\n        )\n        (final_layer_norm): LayerNorm((768,), eps=1e-05, elementwise_affine=True)\n      )\n      (11): Wav2Vec2EncoderLayerStableLayerNorm(\n        (attention): Wav2Vec2Attention(\n          (k_proj): Linear(in_features=768, out_features=768, bias=True)\n          (v_proj): Linear(in_features=768, out_features=768, bias=True)\n          (q_proj): Linear(in_features=768, out_features=768, bias=True)\n          (out_proj): Linear(in_features=768, out_features=768, bias=True)\n        )\n        (dropout): Dropout(p=0.1, inplace=False)\n        (layer_norm): LayerNorm((768,), eps=1e-05, elementwise_affine=True)\n        (feed_forward): Wav2Vec2FeedForward(\n          (intermediate_dropout): Dropout(p=0.0, inplace=False)\n          (intermediate_dense): Linear(in_features=768, out_features=3072, bias=True)\n          (output_dense): Linear(in_features=3072, out_features=768, bias=True)\n          (output_dropout): Dropout(p=0.1, inplace=False)\n        )\n        (final_layer_norm): LayerNorm((768,), eps=1e-05, elementwise_affine=True)\n      )\n    )\n  )\n)", "parameters": [["masked_spec_embed", [768]], ["feature_extractor.conv_layers.0.conv.weight", [512, 1, 10]], ["feature_extractor.conv_layers.0.layer_norm.weight", [512]], ["feature_extractor.conv_layers.0.layer_norm.bias", [512]], ["feature_extractor.conv_layers.1.conv.weight", [512, 512, 3]], ["feature_extractor.conv_layers.1.la
…
